checkpoint_critic.pth (torch_old, 538064 bytes, 13 tensors)

fcs1.weight f4 [400, 24]
00000000: 4c28 7abe 0afa ccbe e524 88be 4dd9 ba3e
00000010: d514 efbd 0397 6ebe 5f68 98be 1311 bb3e
00000020: fd98 c4be 608c 9abd 09b7 d1be 2ee5 8b3e
00000030: 7a27 8c3d 5d91 f4be f889 c1be e5c0 913e
00000040: 04a5 11bf df2d edbd 139c fcbc 1479 92be
00000050: 153d 953e de05 883d 3946 cdbd 5388 88be
00000060: d198 23be 5ac9 6b3d c178 28bd 39e6 a33d
00000070: dfe7 c43c 7ff0 3dbd 5e8d 7ebc 77d0 993d
00000080: 19ef 84be aa27 bb3d 1543 80bd 1dfd a9bc
00000090: b01c 973d 4365 05be e1e3 22bd a890 43bd
000000a0: 753b 0fbe a23e 363d f665 293d 8279 2b3c
000000b0: 0945 b13d b2c0 8cbd 9fa8 b23b 0de0 91bd
000000c0: e09c 5cbe e87e ddbe 9e51 49bc d60e 0b3e
000000d0: 6d53 1dbf 8508 5e3f 6d1a dcba 516c fc3d
000000e0: e705 05be 2cac 9abe 77ef d3bc da30 e63e
000000f0: 96a6 edbd 8099 a13d 0be7 f8bc 6a21 cc3e
00000100: 6ba8 8ebd aaa5 b4be 3054 633c 1030 acbe
00000110: 5369 343f 1fd6 82bf a5c1 8fbd 0c94 b7be
00000120: e62b 23bf 31d5 cfbf d3a9 943d 7929 353e
00000130: f611 28bd db29 903e e457 e73d 8442 173e
00000140: 7123 a8be 9020 e2bf 0c2b 7d3d 879a 433c
00000150: 31d5 0bbd edca f4be 10c2 31bb 615e 2b3c
00000160: 613c 17bf df03 bfbf 17da 6dbd 10b8 e43d
00000170: dd44 85be ce3e 32bf c7ce 36bd 66a5 653d
00000180: e0da d7bd 7e12 98bf 506a e33c e5aa f53d
00000190: 13d8 82be 5b53 603e 98e1 99bc 99de a93d
000001a0: 21ac a7be 4451 7fbf de21 343d e08e b9be
000001b0: 8c43 df3d f050 4bbf 21e9 7c3d 471b acbe
000001c0: befa f9be 330c 84bf 608a 2d3e 22db 2b3e
000001d0: 6b13 403f c13d a3be 0213 4f3e 4d10 4d3e
000001e0: a37e c93b f21b 2abe e36b ca3c 6064 3abd
000001f0: d07a 293f 75c4 35bf 32e5 d5bc e999 073d
00000200: 73dd 1c3b bdc3 c83d 6e12 bdbc 262b d73c
00000210: dbef 433e 47c3 85bd edb3 dc3c ee28 3fbd
00000220: 07ad d83a 16da 763d 12e3 9bbb 28e3 9fbb
00000230: 4b38 80bf 09a1 773f fa65 233c 11ee 13bb
00000240: 03c4 e8bd fef7 d7be 14a0 1fbd 1d18 39bc
00000250: 2139 a4be b1de 12bf 9bac 823c 3b07 6fbd
00000260: f107 873e 3f13 70bf 407f 343a a158 503e
00000270: 235c bfbe eb9c 5fbe f4a7 483d 9cbb 323e
00000280: 81bf ea3e 376c 6dbf ad76 c2bc b06c df3d
00000290: 6808 04c0 8891 f53b 9fb4 a83b 161a 0a3e
000002a0: 50c6 49bf 4f5c 803f ec54 acbd d752 24bd
000002b0: d835 2e3d 00a4 813f 1635 88bd 3e3b 8dbc
000002c0: ecfb 7bbf 9626 9c3f cc92 29bd 459c 923e
000002d0: 2317 d0bd ac98 02be 2e3a 58bd 4cfc 983e
000002e0: 0a1e 1ebf 6bdb 8d3f 7b52 d63d 1e01 edbe
000002f0: e708 27be 1118 b8be 5fce c63d a58c dabe
00000300: 4de9 a43d 276b 77bf a0a8 6bbd 7100 e6be
00000310: 625e fd3e 2367 b8bf 0bc2 03bd 248c f8be
00000320: e9bb 5bbe e6b4 9dbf 19b1 b6bc 1f3c 31be
00000330: 35fe 54bc e58a 07bf 3269 3d3c 64d9 08be
00000340: 5f48 08bf 8a3a f7be 523d 273c 757c 8c3a
00000350: b99c 893e 6ac9 52bf 4db4 213b c449 4b3d
00000360: f42e bebe ddbb a1bc 261b 8c3d 3ffd 8c3e
00000370: fdd0 f5be f8f4 433f 4e30 0c3e a6c1 8b3e
00000380: d68c 14bd c109 3d3e 2238 f03d f7da 573f
00000390: 25c6 f8bd b362 0d3f 3fd1 103e d2f6 4b3f
000003a0: 8bcd 783d 4e14 de3e 5b21 d03d 54cf d63e
000003b0: 2a85 1dbe bf03 523f 6f55 d03d 0d8e df3e
000003c0: dbcc 153e 179d de3e 996a c53c 2516 ac3c
000003d0: 4ea2 af3b 2205 0bc0 48f5 e4bc 912f 47bc
000003e0: c99d c5be ecca cc3e 76c7 aabb 3ff0 14be
000003f0: eb86 67bc d540 bebf ae48 92bc e5f4 98bd
-0.24429435 -0.40034515 -0.26590648 0.36493912 -0.11673895 -0.23299794 -0.2976713 0.36536464
-0.3839797 -0.07546306 -0.40959957 0.27323288 0.06843467 -0.47767153 -0.37800574 0.2846748
-0.5689242 -0.11581015 -0.03083614 -0.28608 0.29148164 0.06641744 -0.100231595 -0.26666507
-0.15976264 0.05756507 -0.041130785 0.08002896 0.024036346 -0.046371933 -0.015536634 0.07510465
-0.25963667 0.09138425 -0.06262795 -0.020750577 0.073785186 -0.1302691 -0.039768104 -0.047745377
-0.13987525 0.044493325 0.041357003 0.010465981 0.086557455 -0.06872691 0.00545223 -0.071228124
-0.21544218 -0.43260884 -0.012287525 0.13579878 -0.6145542 0.8673175 -0.0016792543 0.12325347
-0.12990533 -0.30209482 -0.025871022 0.44959146 -0.11604039 0.07890606 -0.030383607 0.39869243
-0.06965717 -0.35282642 0.013875052 -0.3363042 0.7047321 -1.0221595 -0.07019357 -0.35855138
-0.6373886 -1.6236936 0.07258954 0.17691602 -0.041032754 0.28156933 0.11296061 0.14771467
-0.3283954 -1.7666187 0.06180863 0.011938698 -0.034138862 -0.4781107 -0.0027123727 0.010459513
-0.59076506 -1.4923056 -0.058069315 0.1116792 -0.260291 -0.6962708 -0.044630792 0.05606594
-0.10539794 -1.1880643 0.027760655 0.11995486 -0.25555477 0.21906798 -0.01878433 0.0829441
-0.3274851 -0.99733377 0.04397761 -0.36241817 0.109015554 -0.79420376 0.061745767 -0.3361456
-0.48824114 -1.0316223 0.16947317 0.16782811 0.7502963 -0.31883052 0.20222095 0.2002575
0.0061491295 -0.16612223 0.024709648 -0.04550588 0.6620302 -0.71002895 -0.026110265 0.033105765
0.0023935705 0.09802959 -0.023080077 0.026265692 0.19134466 -0.06531387 0.026941264 -0.046669893
0.0016531058 0.060266577 -0.0047572935 -0.004879374 -1.0017179 0.96730095 0.009973044 -0.0022572319
-0.11365511 -0.4218139 -0.03897102 -0.011297253 -0.32074836 -0.5737105 0.015951445 -0.058356505
0.26373246 -0.9377937 0.0006885417 0.20346309 -0.37374982 -0.21837203 0.048988298 0.1745438
0.4584923 -0.9274325 -0.02373823 0.10909402 -2.063013 0.0074941553 0.005148485 0.13486513
-0.78818226 1.002817 -0.08414635 -0.040118065 0.04253182 1.0128174 -0.0665075 -0.017240163
-0.9843128 1.2199275 -0.041399762 0.2863485 -0.10160663 -0.12753552 -0.05278986 0.29879987
-0.61764586 1.1082586 0.10464951 -0.46289915 -0.1631199 -0.3595586 0.09707331 -0.42685428
0.08052311 -0.96647877 -0.05753386 -0.44922212 0.4948607 -1.4406475 -0.032167476 -0.4854442
-0.21458401 -1.2320831 -0.022301244 -0.1730809 -0.013000061 -0.5294631 0.011560725 -0.13364178
-0.5323543 -0.4828685 0.010207491 0.0010718243 0.26877382 -0.82338583 0.0024674118 0.049630895
-0.37145197 -0.0197429 0.06841116 0.2753696 -0.48011008 0.7654567 0.13690302 0.2729618
-0.036267124 0.18460752 0.117294565 0.8431849 -0.12147168 0.5522873 0.14142321 0.7967349
0.060742896 0.43374866 0.10162612 0.41955054 -0.1538283 0.82036966 0.10172545 0.43663064
0.14628927 0.43479225 0.024098681 0.021006653 0.0053599244 -2.1721883 -0.02794899 -0.012157337
-0.38596943 0.39998567 -0.005211766 -0.14544772 -0.014131288 -1.4863535 -0.017856922 -0.07468585

fcs1.bias f4 [400]
00000000: d30c ab3d 44d6 3c3c 2c21 39be 8e75 9bbd
00000010: 6c3f 033e 11d9 ef3d 5a9d 903d ee7c 383e
00000020: be51 d9bd 4a24 79bd 021d f9bc 1caa 4dbd
00000030: ad49 343e 6adb 50be cf6f 1e3d b72b 4d3e
00000040: b068 e8bd 2c20 263e 4317 34be 7967 0d3d
00000050: 85fb edbd f542 843d 27d6 363d 2be2 373d
00000060: 66b1 3dbd 6a7f 81bd 406b 4abe d3b1 0a3d
00000070: 1588 473e ae49 1dbe 21d1 a0bd 2372 5b3d
00000080: c3d2 d53d 9cd5 973d d56e 073e 0c8a d33c
00000090: 08b4 4dbd aa3c 2ebe e8ec 50be 2911 20be
000000a0: c3ff d13d cfd8 3b3e d3f6 463e c989 1c3e
000000b0: 489f 2c3c 9fed 0f3e 97ee 9e3d 1387 0dbe
000000c0: 4af3 1cbd 80fe 41be ed6e 333e efb9 353d
000000d0: 9cf1 3f3e 2f73 cabc 60fa 253e c9ac c33d
000000e0: 2011 ccbc f4fb ddbb ebf7 143e f9dd dbbc
000000f0: 0789 223e b774 373d cac5 a3bd c2c6 c1bd
00000100: 4558 cbbd 981f 063e 5301 1e3e f18c c4bd
00000110: e6ca 3ebe f9f0 ec3d bc23 3ebd 70ee 3fbe
00000120: 2489 2f3d 1272 a6bc fd97 163e 7381 313d
00000130: 6ae0 00be 152f 17bd 0419 16be d478 c33d
00000140: 6094 743d 21c7 f63d 1cb3 1abe 23b3 e8bd
00000150: 5465 febd 5b52 2dbe d3fa 42be 3989 28be
00000160: 659b 113e e83e 7cbd 343f 1abd 0407 7c3d
00000170: c90c 5c3d 91f2 bb3d 8694 13be dfbb 393e
00000180: ba9e 85bc 6c7a c6bd 66e9 063e 05cc 2dbe
00000190: 3e04 f9bd 7099 eb3d e10d a23d 348c a5bd
000001a0: 05a9 85bc ddb1 18bd d6fc a93d 9cbc 273d
000001b0: bf33 993d c0a6 2c3e 32c2 0fbe 15ca 20be
000001c0: 4a64 46bd d657 bebd 68a6 14be 58fc 413e
000001d0: f99d 2e3e 2ec6 283e 0fbd 00be 0691 c5bc
000001e0: a4a7 22be a5bb 96bd e52e 2e3e b1a5 d13c
000001f0: c406 913d 64c8 4fbe 5b3b ac3d cfef 0c3e
00000200: 5688 a0bd e5d7 1e3e 9449 bc3d f2b9 18be
00000210: 38b0 1cbe ddcf 3b3b f09b 49be fa12 12be
00000220: ed6e a33d ad8b 89bd 6d24 edbb 8cc8 aabd
00000230: 7449 073e 8fe5 2b3e f9d3 163e 7fe0 39be
00000240: db2f 77bd e878 ca3d 2e40 f73d e850 3bbd
00000250: 81e8 e43d 5001 c6bb 0db0 b93c c7d6 0c3e
00000260: 8bfd 0e3e 5890 13be 21d0 fdbd 7c19 943d
00000270: 8241 fb3d 53ba 42bd 4c5c 393e 0ba6 c0bc
00000280: b7f1 d3bd d2d1 aabc 38ed 31be fa83 813d
00000290: 3529 40be 56f4 413e b499 1ebe 9110 083e
000002a0: e9c7 1cbe 42b4 f3bc 9a84 e7bd e39f d53d
000002b0: 9b74 f23d a475 43be d373 33be 0f23 dc3c
000002c0: 9edf 8fbb da9a 983a f92f 7e3d 0540 25bd
000002d0: b064 303e aef1 6d3c 9198 c0bd b70e 913d
000002e0: 182e 22be 4fee c7bd e9c3 733d a161 afbd
000002f0: 5c8d 47be 1f35 d13d cb2c 573d 0568 733d
00000300: 9b4e 913d 3f42 4ebe 4020 b6bd 1a19 cbbd
00000310: b301 483e 2f1f b0bd ae51 09be 21b8 92bd
00000320: baae a03c 1c73 a83d 9aee 193e 5be5 163e
00000330: 70bc ab3c fc6b 3e3e c045 de3d cf0e df3d
00000340: 043d 33be bc99 883c dd96 31bd 8ca4 46be
00000350: 9076 cebd ec0a 1f3e b451 993d 372c 413e
00000360: a485 0e3e b54c cdba 5cde 3b3e f459 303d
00000370: 44a1 f5bc 02c0 b2bd fdb9 063e 0367 bb3d
00000380: 8920 113e 0c3f 11bd 3e73 41be 3e75 173d
00000390: b8fe b63c 960e 08be 37b7 4a3d 309b cabc
000003a0: de53 323e 64a3 1d3c cb77 cebd 2474 273e
000003b0: 8d5f c63b 7582 0cbd 43a9 c73d eba2 493e
000003c0: 219e be3d 6806 bd3b aa35 2b3e a155 b7bd
000003d0: 9eb5 383e 612f eebd d028 763b ce3b 3e3e
000003e0: fb6a a63d 3333 2fbd 58c7 003e 6495 f63d
000003f0: 266a 3cbe fb72 babc f47f 24be bd37 34bd
0.083520554 0.011525694 -0.1807906 -0.07590781 0.12817162 0.11711324 0.070612624 0.18016407
-0.10611294 -0.060825624 -0.03040934 -0.050211057 0.1760623 -0.203962 0.038680848 0.20036207
-0.113480926 0.1622321 -0.17586999 0.034522507 -0.11620239 0.064580835 0.044637825 0.044893425
-0.04631176 -0.063231304 -0.19767475 0.033860993 0.19485505 -0.15360138 -0.07852388 0.053575646
0.1044059 0.0741379 0.13225873 0.025822662 -0.05022052 -0.17015329 -0.20402873 -0.15631546
0.10253861 0.18344425 0.19430093 0.15286936 0.0105360225 0.14055489 0.07760351 -0.13821058
-0.038317956 -0.1894474 0.17522784 0.044366773 0.1874451 -0.024713127 0.16208792 0.095544405
-0.02491051 -0.00677442 0.14547698 -0.026839243 0.15872584 0.044789042 -0.0799671 -0.09461738
-0.099289455 0.1309799 0.15430193 -0.09597195 -0.18632087 0.115693994 -0.046420798 -0.187433
0.042855397 -0.020318065 0.14706416 0.043336343 -0.12585607 -0.036910135 -0.1465798 0.095445305
0.059711814 0.120496996 -0.15107387 -0.113622926 -0.124216706 -0.16925947 -0.19040994 -0.16458596
0.14219435 -0.06158343 -0.03765793 0.061530128 0.05372313 0.09177125 -0.14412126 0.18138073
-0.016311038 -0.09691319 0.13174972 -0.16972359 -0.12159012 0.11503875 0.079128034 -0.08083382
-0.016315946 -0.037279 0.08300178 0.040951356 0.07480573 0.16860485 -0.14038923 -0.15702088
-0.048435487 -0.09294097 -0.14516604 0.18943918 0.1705245 0.1648185 -0.1257212 -0.024117004
-0.15884262 -0.07360009 0.17010076 0.025591703 0.070813686 -0.20291287 0.08409759 0.13763355
-0.07838504 0.15512045 0.091937214 -0.14914683 -0.15301597 0.0028657832 -0.19688392 -0.14265051
0.07980142 -0.06716094 -0.0072370083 -0.083390325 0.13211614 0.16786788 0.14729299 -0.18152045
-0.060348373 0.09886342 0.12072788 -0.045731455 0.11177159 -0.006042637 0.022666955 0.13753806
0.13963906 -0.14410532 -0.12393213 0.07231423 0.12268354 -0.047540974 0.18101615 -0.023516675
-0.10348838 -0.020852003 -0.17375648 0.06324001 -0.18765719 0.18940863 -0.1548832 0.1328757
-0.15310635 -0.02974904 -0.113045886 0.104308866 0.11838647 -0.19087845 -0.17524652 0.026872186
-0.004390671 0.0011642829 0.06205747 -0.040344257 0.17225909 0.014522953 -0.094041 0.07082885
-0.15837896 -0.09762251 0.059513006 -0.08563543 -0.19487518 0.1021521 0.052532952 0.059425373
0.07095071 -0.20142458 -0.0889287 -0.09916897 0.19531898 -0.08599698 -0.13410065 -0.07164026
0.019614566 0.0822508 0.15032426 0.1473593 0.020963877 0.1859588 0.108531475 0.108914964
-0.17503744 0.016674869 -0.043356765 -0.19398707 -0.10081208 0.1553151 0.07486287 0.18864523
0.13918167 -0.0015663119 0.18346542 0.043054536 -0.029984124 -0.08728029 0.13156886 0.09150507
0.14172567 -0.035460517 -0.18891618 0.036977045 0.022338256 -0.13286814 0.049491134 -0.024732202
0.17414805 0.009621475 -0.100814424 0.16352898 0.006053871 -0.0343041 0.09749081 0.19691055
0.093075044 0.005768586 0.1671969 -0.08951879 0.18038031 -0.116301306 0.0037560947 0.18577501
0.08125874 -0.042773437 0.12576044 0.12040213 -0.18399867 -0.022759905 -0.16064435 -0.04399847

bn1.weight f4 [400]
00000000: f187 eb3d 0351 e53a 2de8 953e e3ca 803e
00000010: 62c4 b23e e488 933f 4ab2 a93e 1586 dd3e
00000020: 04ae 013f ab70 103e e402 163f b53a d03e
00000030: 4c98 a53e b009 773e a75e 0c3f cf40 503e
00000040: 8457 243f 3df2 833e 632f 983e 0e27 fe3e
00000050: 6c2d c93e 452d ea3b efab 333f 506b 323f
00000060: c970 4f3e afed 893e 82a5 e93e f0e8 b73e
00000070: e7ac b13e f753 8e3e 5082 9b3e 83e1 af3e
00000080: de64 7f3e 88ec b73e 373f c63e ebcf bc3e
00000090: 90fa 713e 803b 8c3e 57fa d63e aef1 7b3e
000000a0: 7997 ef3e 1361 a93e be6b b53e e3d2 ae3e
000000b0: a238 b43e 6307 7d3e 68ab 9a3e 38d8 833e
000000c0: ec86 d33e 89e5 603e 2d71 933e 9c21 053f
000000d0: 5b74 993e da89 a83e 3963 bd3e 22cf a53e
000000e0: 92e5 c93e 5f17 ed3e 082b 9f3e ac8d dc3e
000000f0: a51b a03e b46a 153f 4afd 9c3e 33cf 8b3e
00000100: 6353 eb3e ccf3 3c3f c1ce dc3e d4eb 0d3f
00000110: 3e74 8b3e 4ecf 9a3e 8282 c93e 4d11 da3e
00000120: 4240 99ba bcf9 e43e ccde dd3e d425 cd3e
00000130: 9f3e fa3e f7dc eb3e 6ce7 b53e 5433 743e
00000140: 4aa3 373c ce1e a03e 56a8 443e 4900 9c3e
00000150: 7e5b d63e 3494 853e 4b9c 3a3f 5950 ae3f
00000160: a010 bb3e 9af6 9c3e 4615 9a3e 85c7 c43e
00000170: f5cb 6a3e c2ad 8a3e df0e d83e d439 5e3f
00000180: ecab f73e 170f 0c3f 0efb 073f 16ce 843f
00000190: ccc7 ea3e 221a 143d 4f7a 913e 4596 ae3e
000001a0: 7b73 a53e f780 a73e d82f 113e 5f75 cf3e
000001b0: ee73 a23e fa36 5e3e 8dd0 993e 9075 953e
000001c0: 070e 3d3e e790 e93e 953c 173f d25e 983e
000001d0: 5d7c 9d3e efbd 083b d76e ef3e 9614 c03e
000001e0: 6bb1 0e3f 1c62 a83e d9fa dc3e ea96 8e3e
000001f0: 1eb3 063f 41a0 9a3e 2c9c 003f caef c53d
00000200: 0208 fc3e edb0 e93e 555f 9b3e 75fc 193f
00000210: c18c a53e e14a 8f3e 47df 9e3e 2fe1 183c
00000220: 739c 3e3f 364f 873e f174 003f 7f37 b23e
00000230: b503 e13e 8f38 aa3f a056 9c3e d096 6d3e
00000240: c9a7 c23e fb9e a03e 18d8 d53e 13b4 dd3e
00000250: be02 7b3e 78ce 933e 03bd af3e 2f84 d23e
00000260: d328 723e 340f 9a3c 8db4 b63e c319 c73e
00000270: 08b0 ac3e c4b1 5f3f 60c3 3e3e dea3 473e
00000280: 8690 d63e 760c 8f3f 7262 0c3f 5927 8f3e
00000290: 37d1 5f3e c462 d93e a537 ed3e fb3c a13e
000002a0: 3e05 9f3e fe38 d83e 6e56 4c3e 223e c13e
000002b0: 59a8 c33e 3ea1 9b3e c869 973e dd63 8f3e
000002c0: 3267 c93e 3972 f23e 504e b33e b983 ad3e
000002d0: ee77 f73e e21a 223f a81c ea3e 687f ca3e
000002e0: 6352 ad3f ce17 063d 9f73 cb3e 1b12 7d3e
000002f0: 5d4c 073f b882 be3e 261d c93e b3f4 7a3f
00000300: 3149 b63e f2f7 7d3e a333 4d3e 48c7 043f
00000310: a776 a93e 5b43 c73e a90b e23e 51d7 ec3e
00000320: 0c09 053f 9558 e63e 8e50 fe3e d65e 923e
00000330: b91a 893e a3dc 9f3e 8f3a 2a3b 19f2 b93e
00000340: a8fc a13e 7cfa a83e 9ca7 a53e b6d1 953e
00000350: 6b89 253f 7383 c23e a008 dd3e 4385 823e
00000360: 61b3 993e 5420 d33e d4ad 713e 2060 913e
00000370: afce 803e 6c36 c73e f8ee b53e 7123 973e
00000380: 26c0 073e 7c46 563e 1810 6c3e 4be0 e33e
00000390: 7569 8b3e d2f9 cd3e d775 893f 4bc9 363f
000003a0: afad ae3e a2b0 643e 321a 773e 1352 083f
000003b0: 5821 383f 3714 f53e 48fe 9f3e 4f2b 9c3e
000003c0: adc4 8e3e 66ff f23e 3956 923f 336a f03e
000003d0: 2970 d43e 60eb 28ba 3720 923e ace2 b8ba
000003e0: 15c6 913f af64 ed3e b62b 9a3e c5e7 cf3e
000003f0: 9e7c e33e 5628 c93e cde7 9b3e 8d89 473e
0.11500538 0.0017495457 0.292787 0.2515479 0.34915453 1.1526151 0.33143836 0.4326636
0.5065615 0.1410548 0.5859816 0.4066979 0.32342756 0.24124789 0.5483193 0.20337223
0.6419604 0.2577075 0.29723653 0.4963917 0.39292467 0.00714651 0.70184225 0.69694996
0.20257868 0.2693915 0.45634085 0.35919905 0.34702227 0.27798435 0.30372858 0.3435174
0.24940822 0.35922647 0.38720104 0.3687738 0.23630738 0.27389145 0.4198787 0.24603912
0.46795252 0.33081874 0.35433763 0.3414527 0.35199457 0.24709849 0.30208898 0.257509
0.41313875 0.2196256 0.28797284 0.5200441 0.29971585 0.32917672 0.36989763 0.32384592
0.3943296 0.46306893 0.31087518 0.43076837 0.3127109 0.5836594 0.30661994 0.27306518
0.45962057 0.73809505 0.4312649 0.5543797 0.27237123 0.30236286 0.39357382 0.42591324
-0.0011692124 0.44721782 0.43334043 0.40067923 0.488759 0.4606702 0.35528123 0.23847705
0.011208365 0.31273502 0.1920484 0.30468968 0.41866678 0.26089633 0.72894734 1.361827
0.3653612 0.30656892 0.30094355 0.3843347 0.22929366 0.27085692 0.42198846 0.8680699
0.48373353 0.54710525 0.53117454 1.0375392 0.45855558 0.036157735 0.28413627 0.34099022
0.32314667 0.3271558 0.14178407 0.40519235 0.31729072 0.2170066 0.30041924 0.29191256
0.18462382 0.45618364 0.59076816 0.29759842 0.30758944 0.0020865162 0.46764252 0.37515706
0.5573947 0.32887352 0.43160132 0.27849513 0.5261706 0.3020039 0.502383 0.09664877
0.4922486 0.45642796 0.3034617 0.60150844 0.3233395 0.27986816 0.31029722 0.009331032
0.7445747 0.2642762 0.5017844 0.34807965 0.4394814 1.329851 0.3053484 0.23202062
0.38018635 0.31371292 0.4176643 0.43301448 0.24512765 0.2886846 0.34323892 0.41116473
0.23648386 0.018806078 0.35684624 0.38886842 0.3372805 0.87380624 0.18629217 0.19496104
0.41907138 1.1175678 0.54837716 0.27959707 0.21857153 0.42458165 0.46331516 0.31491837
0.31058687 0.42230982 0.19954845 0.37742716 0.38214377 0.30396456 0.29572892 0.28005877
0.39336544 0.4735277 0.35020685 0.3388956 0.48333687 0.6332227 0.45724988 0.39550328
1.3540767 0.032737546 0.3973665 0.24713938 0.52850896 0.37209105 0.3928005 0.9802963
0.35602716 0.24801615 0.20039229 0.5186658 0.33098337 0.38918576 0.4414952 0.46258023
0.5196693 0.44989458 0.49670833 0.2858798 0.267782 0.3122302 0.0025974845 0.36317518
0.31638074 0.33003604 0.32354438 0.2926156 0.6466281 0.37990913 0.43170643 0.25492296
0.30019668 0.41235602 0.23601466 0.2839365 0.25157687 0.38908708 0.3553388 0.29519227
0.13256893 0.20925325 0.23053014 0.4450706 0.27228895 0.4022966 1.0739087 0.714009
0.34116885 0.22333005 0.24131086 0.53250235 0.7192588 0.47866985 0.3124869 0.30501792
0.27884427 0.4746048 1.1432563 0.46956024 0.4149182 -0.0006443765 0.28540203 -0.001410564
1.1388575 0.46365878 0.30111474 0.40606514 0.44431013 0.39288586 0.30450287 0.19486065

bn1.bias f4 [400]
00000000: 0ca7 84bd 51ea ebbc 2214 0fbe bd6d 8dbe
00000010: a32e cbbe 01dd bebe d709 f4be c2bf fbbe
00000020: 0e05 cdbe 3e15 65bd cb9a e3be 7825 e6be
00000030: f05f 90be f39b e5be 4226 30bf 2a38 2ebe
00000040: 980c 42be d42c f5be bbe5 ddbe db0b 21bf
00000050: 5268 fdbe 44a5 e4bc 2af1 babe d484 25bf
00000060: afee 12be 8faf 63be 9fda 15bf 61e5 5abe
00000070: a94b babe ac53 68bd 9ece b1be 7356 dbbe
00000080: 18d2 eabe 138c 49be d304 20bf e821 d1be
00000090: e1c2 1dbe e918 59be da57 c8be da67 64be
000000a0: 7ba4 f2be c362 e4be f72a b9be 116d 32be
000000b0: 220f 8bbe ff52 afbe bee9 babe 7ecd 8bbe
000000c0: 6cbd fcbe 9cf5 a5be b741 d4be 3a3a 26bf
000000d0: 212b cbbe d3eb ccbe 4dac 8abe 65f2 bdbe
000000e0: b6ef 19bf 61ea 04bf d499 c6be 2c1b 20bf
000000f0: e1a9 d8be b649 28bf a8e8 b2be ebbf f3bd
00000100: f81d 16bf 5532 ebbe 3722 cbbe 4b49 e4be
00000110: d512 afbe 7590 8abe 704f f2be a78b b9be
00000120: 9b08 f5bb 08c3 b8be d7be 1ebf 273f dcbe
00000130: b591 45bf 8b25 6bbe 5679 18bf 874f 64be
00000140: e4f3 35bd 3a7d f3be 9d7f 91be 162c 0abf
00000150: 85f1 1cbf a46a 04be 98d0 1dbf f2df 08be
00000160: 9815 cfbe d3c1 cdbe 4558 a5be 3751 91be
00000170: 34ab 36be ee20 91be 0045 c0be db74 55be
00000180: 3f16 19bf e7ff e1bd 3b85 13bf 92fe d23a
00000190: 9cfd ebbe 5bf1 e2bd e778 7ebe 7199 b3be
000001a0: 940e 5abe 0814 b7be 525c b2bc 3c22 c9be
000001b0: 51fe 92be 219c 07be 9845 83be 77d0 c5be
000001c0: 4b1a eebd 8fc8 bebe cf5f 04bf 93ca 99be
000001d0: 1ade d9be 7cca 1ebc 9f17 adbe 27b1 a6be
000001e0: 8cdc 58be d3f3 d3be 35ac e9be fbf5 ccbe
000001f0: 412d 26bf 5be2 b8be adf6 1ebf ac1e 16bc
00000200: 667b a4be 8c02 f0be 053b d1be a0ac 95be
00000210: 13a3 f0be 7d40 0ebe df82 d0be 4b58 b5bd
00000220: 74db 4c3d a0b7 85be a05e 77be 999c f9be
00000230: df57 0bbf 8f9d f9bd 8b59 b2be 898d c0be
00000240: c30f e3be 9f04 00bf 5fe2 08bf 3702 d8be
00000250: 55bf 5dbe fc90 b6be e617 00bf c9fa 9ebe
00000260: 5993 78be 22f5 c0bd 120c d4be ec45 f0be
00000270: 3a7c 79be 412a 95be 5f04 2bbe 3278 09be
00000280: df50 07bf bb08 febe 71ad 55bf 4ee0 64bc
00000290: f00f 24be 611f f5be 9c05 08bf 4262 eebe
000002a0: 5b79 9ebe 8697 0abf dc14 97be 3783 b3be
000002b0: a729 d6be 5a66 97be b59a c5be bd44 c4be
000002c0: 8510 4abe 1a44 bcbe 8ce8 dfbe 2017 d1be
000002d0: 6823 1fbf b612 32bf a044 f8be 4b59 ecbe
000002e0: 01de 653e bd5f 0dbe a9a0 19bf 8743 66be
000002f0: 8361 c6be 0e0a cbbe f6e9 cdbe 20eb 91bf
00000300: 2a63 b2be 3cbb a6be 9027 ccbd 12f4 2fbf
00000310: b379 94be ed90 f7be e680 18bf ae8e 0bbf
00000320: 627e 22bf c79b 25bf 9c15 dfbe b10c a2be
00000330: 3e01 85be d65c a1be bc71 58bc ad59 01bf
00000340: 9d2a a3be f36c febe 4620 83be e843 a0be
00000350: 774e 12bf e4d7 c9be 955b 0ebe e82a 88be
00000360: 28a9 d9be ed05 dcbe bf2b 34be 1f96 8bbe
00000370: d515 f5be a597 fabe b0e9 a5be 13c5 d2be
00000380: 7b9d abbc a562 a4be d52f 4cbe 7365 03bf
00000390: 4dcf afbe d087 31be ba8b 95be e7d5 fbbe
000003a0: 1d8f 6dbe e3dd a93c 9426 e3be 736c edbd
000003b0: 2f64 03bf 8140 1bbe 9d37 d6be 0182 fcbe
000003c0: 1a57 c3be 8313 d4bd d106 9cbf 9328 17bf
000003d0: 3ac2 16bf c70f 2cbc b1df a4be 1eed 34bc
000003e0: ab36 b93f 53b4 07bf 1a4f f3be 5e56 86be
000003f0: 6459 f6be da40 04bf d161 6dbe 56a0 66be
-0.06477174 -0.028798254 -0.13972524 -0.27622786 -0.39684018 -0.37277988 -0.47663757 -0.49169737
-0.4004292 -0.05592846 -0.44454035 -0.4495046 -0.28198195 -0.44845542 -0.68808377 -0.17013612
-0.18950117 -0.47885764 -0.43339333 -0.62908715 -0.49493653 -0.027910836 -0.3651212 -0.64655805
-0.14348863 -0.22234939 -0.58536714 -0.21376564 -0.3638585 -0.05672042 -0.3472795 -0.42839393
-0.45863414 -0.1968234 -0.6250736 -0.4084618 -0.15406372 -0.21200909 -0.39129525 -0.22305241
-0.47391114 -0.446066 -0.36165592 -0.17424418 -0.27159983 -0.34243008 -0.36506456 -0.27305216
-0.49363267 -0.32413948 -0.41456386 -0.64932597 -0.39681342 -0.4002367 -0.2708458 -0.37098995
-0.60131395 -0.51920134 -0.38789237 -0.6254146 -0.42317107 -0.65737474 -0.34943128 -0.1190184
-0.5863948 -0.45936838 -0.3967454 -0.44587168 -0.34194055 -0.27063337 -0.4732623 -0.3623936
-0.0074778325 -0.36086297 -0.6200995 -0.4301693 -0.77175456 -0.2296354 -0.59560144 -0.22295962
-0.044422045 -0.47556478 -0.28417674 -0.5397352 -0.6130603 -0.12931305 -0.61646414 -0.13366678
-0.40446162 -0.4018694 -0.32293907 -0.28382275 -0.17838746 -0.28345436 -0.37552643 -0.20845358
-0.5979957 -0.110351376 -0.5762517 0.0016097596 -0.46091926 -0.11081191 -0.24850808 -0.35078004
-0.21294624 -0.3575747 -0.021772537 -0.3928393 -0.28709653 -0.13243152 -0.25639033 -0.3863561
-0.11626109 -0.3726239 -0.5170869 -0.30037364 -0.42552263 -0.009691831 -0.33807084 -0.32557032
-0.21177882 -0.4139696 -0.45639196 -0.40031418 -0.649128 -0.36110196 -0.6209515 -0.009162586
-0.32125396 -0.46876943 -0.4086534 -0.29233265 -0.46999416 -0.13891788 -0.40724847 -0.08854731
0.050013974 -0.26116657 -0.2415719 -0.48752287 -0.54430956 -0.12188255 -0.3483394 -0.37607983
-0.44347963 -0.5000705 -0.53470415 -0.4218919 -0.21655019 -0.3565749 -0.50036466 -0.3105071
-0.24274959 -0.094217554 -0.4141546 -0.46928346 -0.24363795 -0.291338 -0.16700886 -0.13424757
-0.52857774 -0.49616036 -0.83467776 -0.013969494 -0.16021705 -0.47875503 -0.5313356 -0.4655934
-0.30951962 -0.54137456 -0.29508102 -0.35061046 -0.41828653 -0.29570276 -0.38594595 -0.38333693
-0.19732864 -0.36770707 -0.43732107 -0.40837955 -0.621634 -0.695598 -0.48489857 -0.46161875
0.22447969 -0.13806053 -0.6001077 -0.22486697 -0.3874627 -0.3965611 -0.4021756 -1.139988
-0.3484128 -0.32564723 -0.099684834 -0.68731797 -0.289991 -0.48352757 -0.59571683 -0.54514587
-0.63474095 -0.6469082 -0.43571174 -0.31650308 -0.2597751 -0.3151614 -0.01321071 -0.5052746
-0.3186845 -0.49692497 -0.2561056 -0.31301808 -0.5715098 -0.39422524 -0.13902123 -0.26595235
-0.42511868 -0.4297327 -0.17594813 -0.2726297 -0.4786822 -0.4894382 -0.32404852 -0.4116598
-0.020949116 -0.3210651 -0.19940121 -0.51326674 -0.34337845 -0.17336965 -0.29208165 -0.49186632
-0.23199125 0.020735687 -0.4436537 -0.11592951 -0.51324743 -0.15161325 -0.41839305 -0.49317935
-0.3815239 -0.10355284 -1.218958 -0.59046286 -0.58890116 -0.0105018085 -0.32201913 -0.011042861
1.4469808 -0.5300953 -0.47521287 -0.26237768 -0.48115075 -0.51661456 -0.23181845 -0.22522101

bn1.running_mean f4 [400]
00000000: c2c7 9dbf aebb 0a40 2df2 1940 ebef 3c41
00000010: 424e 0a41 c503 123f 685f 80c0 77a0 5d41
00000020: 29a8 afbf 8e84 2541 b4a0 cac0 338a 09c1
00000030: 3b91 1541 c778 42c1 ec16 5dc1 5c03 58c1
00000040: 696f 3a3f 9ff1 f440 b262 a2c1 6c8c c740
00000050: 124a 3e41 8a48 f43f 6d95 a540 bd65 6141
00000060: af86 99c1 65ac 263d 210b c840 b49a b540
00000070: 0f8b 3141 a0f2 bfbe 6d23 0b41 e66d 5c40
00000080: f2fc 15c1 c360 1e41 49bd 0c41 b3b3 bec1
00000090: 5c8f 1f40 052d 90c1 710e 1f41 fd8e 0640
000000a0: 6c0c d540 81cd 5cc1 773e 6241 102f 993f
000000b0: 3f78 51c1 150c 51c1 0507 0341 d358 e240
000000c0: 83e1 0fc1 002b 8f40 4b99 b6c0 aa4b 0141
000000d0: 6967 95c0 7313 8ec1 e41e adc0 286b 7c3f
000000e0: 3d04 0440 fdcc 37c1 75c8 41c1 9168 5b40
000000f0: db03 a0c1 53df b841 287a 3cbf 222a f440
00000100: bb55 a240 2dcf 213f 8614 c63f e5a4 0341
00000110: bc07 8dc0 a62f 9b40 3f8f ac40 fe72 9240
00000120: 050e 57bd d49e 8141 6df3 b4bf bd41 18c1
00000130: ea7f edc0 2e4c 2c3f ef55 4ec0 1120 0841
00000140: 18b1 16bf 2dc8 5e40 ab12 3340 a90b 983f
00000150: 69f6 2bc0 5a4b db40 01fa 9ac0 edcb 8e3e
00000160: d39e 1c41 976f 7040 65f6 e7bf 2385 5041
00000170: ca74 1941 10d8 0f41 ffad b841 b2ec bf3e
00000180: 6237 a9be 10fc 2f40 460e a141 9b77 2c3f
00000190: 6d74 5fc1 2d49 893f 84c5 5340 77f3 8ac0
000001a0: 3c45 0341 316f 9440 8b3c e8bf 1f0f d0bf
000001b0: 039d 6740 996c 6d3d bac8 71c0 7651 ebc0
000001c0: 1786 7cc1 7f3f df40 bd80 1541 52d5 3c41
000001d0: de63 bbc0 b6d6 d13f a5da 98c0 be7c 52c1
000001e0: 77a3 ab40 a0c8 e7bc 8f63 0041 8795 6641
000001f0: 2fea 7441 725e 9940 9879 c53f 564e e6c0
00000200: eb9a 4ac0 1ec7 4b40 fb48 4341 bcb2 34c0
00000210: f592 d440 0b7c ec3f 60af d9be c24f 9740
00000220: 2d8f 33be 6c75 27c0 ffa4 7a40 d8bd bdc1
00000230: e776 7141 d8d0 b63e 6cdd dcc0 b3b8 0941
00000240: ae7f c3be e779 1d3f dfb6 ba3e b710 96c1
00000250: b235 f340 58cc 39c1 83c2 2c41 dc7d e540
00000260: 02a2 0d41 c514 b9be ec17 ab41 1ff3 a541
00000270: f863 2a40 c404 a03f 6c5c 54c0 b209 fd40
00000280: bc15 9b40 9131 773f a0f8 8fc1 d343 8b40
00000290: 5a9d fec0 adce 9440 88af 97c0 4495 1cbe
000002a0: 899c 7741 b4de 7041 c46a cfbf 00c5 853f
000002b0: c4ff 00c1 14e9 1341 f0b8 25c1 bf29 e1c0
000002c0: 06cf 8240 8834 42c1 ffa1 5fc0 beda 5e41
000002d0: c2b8 f33f 2be7 6e40 a794 3441 8249 a93f
000002e0: 497a f03c 2c89 45bf c3d4 ad3f b3a4 ae41
000002f0: eaba 35bf 37c3 0441 9f15 8fc1 fcba 8a3f
00000300: 3c6b 0140 7108 2641 e7ee bcbf 3a5c 7bc1
00000310: 83bb ad40 1957 bec0 519c 6cc1 2344 c340
00000320: 6a38 6641 2cf2 5dc1 34c3 9541 e797 1f41
00000330: d9cc 893f c947 3c41 2bbd 903c bd86 9ec1
00000340: d967 07c1 524a 20c1 e4e8 6041 846e 0241
00000350: 7bbc a5c0 8463 2541 e741 f13f f62d ab40
00000360: 37fc 0fc0 71d1 ba40 daa5 0ec1 0cdd 40be
00000370: f430 7ac1 a546 8b41 9c35 bdc0 2b67 88c1
00000380: d827 06bf be19 d340 926c 1e41 8d1e 9c40
00000390: cfd4 1140 253a 8cbf fa71 d1be 005b c1bd
000003a0: ccb6 6641 4add 95c1 9dfe e4bf 2ae9 0041
000003b0: daf5 9b3f 6efa 8940 7266 0841 66c4 4c41
000003c0: 7820 e63f a15b e6bf 960a 7cbf e64a 68c1
000003d0: 26f9 57c1 6c3a f03e 4f3f 0dc1 5adf 513f
000003e0: 4086 4a3f 703e 5240 30e0 1d40 e04c e23f
000003f0: 588d 17c0 a06a eac0 2316 2041 0338 93c0
-1.2326586 2.167705 2.4054062 11.808574 8.644106 0.57037 -4.0116463 13.851676
-1.3723193 10.344862 -6.332117 -8.59624 9.347957 -12.154487 -13.818096 -13.50082
0.7282625 7.654495 -20.298191 6.2358913 11.893084 1.9084637 5.1744905 14.087338
-19.190763 0.040691752 6.2513585 5.6751347 11.09645 -0.37489796 8.696149 3.4442077
-9.374254 9.898623 8.796212 -23.837744 2.493125 -18.021982 9.941026 2.1024773
6.6577663 -13.800172 14.14025 1.1967487 -13.091857 -13.06545 8.189214 7.073343
-8.992557 4.473999 -5.7062125 8.080973 -4.6688733 -17.759497 -5.410021 0.9860101
2.0627587 -11.487546 -12.11144 3.4282572 -20.001883 23.109045 -0.73623896 7.630143
5.072965 0.6320675 1.5475013 8.227757 -4.407194 4.8495665 5.392486 4.576537
-0.052503604 16.202553 -1.4136788 -9.516049 -7.4218645 0.6730374 -3.223995 8.507829
-0.58863974 3.4809678 2.7980144 1.1878558 -2.6869147 6.852948 -4.843018 0.27889958
9.788775 3.756811 -1.8122069 13.032504 9.591013 8.99025 23.084959 0.37485272
-0.33050066 2.7497597 20.13197 0.67370003 -13.965924 1.0725456 3.3089304 -4.34222
8.204403 4.638573 -1.8143476 -1.6254615 3.6189582 0.057964895 -3.7778764 -7.353694
-15.782737 6.976501 9.34393 11.80208 -5.855941 1.639365 -4.77669 -13.155455
5.363704 -0.028293908 8.024306 14.411506 15.307174 4.792779 1.5427732 -7.1970625
-3.1657054 3.1840281 12.2053175 -2.823409 6.642939 1.8475355 -0.42516613 4.728486
-0.17535086 -2.6165419 3.9163206 -23.717697 15.091529 0.3570621 -6.902029 8.607593
-0.3818335 0.61514133 0.36467645 -18.758162 7.6003046 -11.612389 10.797488 7.1716137
8.852053 -0.36148658 21.38668 20.743711 2.6623516 1.2501454 -3.318141 7.9074335
4.846403 0.9656001 -17.996399 4.3520293 -7.956708 4.650229 -4.740177 -0.15291315
15.475717 15.054371 -1.6204457 1.0450745 -8.062443 9.244404 -10.357651 -7.036346
4.0877714 -12.137825 -3.4942625 13.928404 1.9040759 3.7328594 11.286292 1.3225558
0.029355185 -0.7716243 1.3580555 21.83042 -0.70988333 8.29766 -17.885557 1.0838313
2.02217 10.377061 -1.4760407 -15.710016 5.4291396 -5.948132 -14.788163 6.1020675
14.388773 -13.871624 18.720314 9.974586 1.076564 11.767526 0.017668327 -19.81579
-8.462853 -10.018145 14.056858 8.151981 -5.179258 10.336796 1.8848237 5.3493605
-2.249769 5.8380666 -8.915491 -0.18834323 -15.636951 17.409494 -5.912794 -17.050375
-0.52404547 6.5968924 9.901506 4.8787293 2.2786138 -1.0955244 -0.4090727 -0.09441185
14.419628 -18.733051 -1.7890202 8.056925 1.2184403 4.31182 8.525011 12.797949
1.7978659 -1.7996713 -0.9845365 -14.518286 -13.498327 0.46919572 -8.827956 0.8198143
0.791111 3.285061 2.4668083 1.767971 -2.368002 -7.3255157 10.005404 -4.6005874

bn1.running_var f4 [400]
00000000: 0811 1444 802b 6441 8cb3 9741 f5bd 9142
00000010: aed4 9f42 4b57 8f40 d860 7343 6fbe 1443
00000020: e06d 8b42 ac19 2d43 0be8 c342 4f4b da41
00000030: a83e dc42 ec3f 0d43 23b1 3e42 d714 8d42
00000040: 3699 7c41 be07 2243 e994 d843 c645 4f43
00000050: 5be0 9743 0b74 6143 c9bc 2542 ec9b cb42
00000060: dbb3 7043 13e5 8342 50a1 3444 7365 f242
00000070: 84db 2a43 3c02 ba42 95d2 f642 4241 8e41
00000080: 1cdb 1b43 cfb5 0143 d8ba 0a44 9b4d b442
00000090: dd24 e242 e1c4 be42 869a 9c42 cce5 2142
000000a0: 84bf 5642 ca8b 0143 d856 df42 aa78 db42
000000b0: 2adf 4b42 7a0c ac42 6dd1 d342 8471 0c43
000000c0: 7b22 1143 f77a de43 0fe7 8f43 c53d 2b43
000000d0: 4548 fb42 55f6 1243 7a17 f242 d17e 1843
000000e0: a30a 9542 b3b4 b542 f4c0 0443 6e53 9143
000000f0: 309f a042 571e 0d43 762c 9842 9385 2243
00000100: 07b0 eb42 7040 1241 9255 8e41 8786 5342
00000110: 03a3 1743 0c61 9b43 11b9 2043 d211 6242
00000120: 5dcd 853f be74 be42 1071 d342 5d32 1243
00000130: 96fc 8a42 e1c6 bc42 3ad3 4743 4552 0943
00000140: 9a4c fe40 76d8 9543 bf0b 8042 09f2 6043
00000150: 90eb 8c42 c957 a642 f338 8f42 655e d040
00000160: 15a2 9e43 2e01 0243 a6c8 7e43 3b0f af43
00000170: d673 a242 f563 d642 4824 6343 90f2 f444
00000180: 5167 d143 aad6 e442 2802 6243 abb3 6744
00000190: 0e50 2042 9c15 7d41 2fce c941 dc2a 1843
000001a0: 812d cb42 e99c 9344 2a3b 1143 ae5b f442
000001b0: 1ef1 0843 bd8d 1e43 937a 0743 cdbb 0443
000001c0: 557f 8a42 caa7 a142 1f9c 7a42 b0ff e243
000001d0: 415f 4143 5000 7c40 e05d a242 ae26 b842
000001e0: e390 d441 c3d7 ef42 a1e9 ab42 72af 5843
000001f0: 6eda 0343 cd3f 1d43 3f0f 7043 4cbd 8443
00000200: 6787 8542 8756 9d42 ff1b 0c43 0d85 0141
00000210: 1f21 3d43 05dd a042 067e 5f44 da7f f140
00000220: b657 b140 87cf 3843 c68d 9542 04b0 1f43
00000230: c955 8943 8713 3940 097d 3b43 148e 5142
00000240: f7f3 7243 1f8e a742 25c8 b943 0a2f a042
00000250: 4928 5243 7b49 fc42 2be0 ab42 7283 2a43
00000260: 4e01 5743 25fd 2841 371c 7443 0985 1643
00000270: 33f4 a542 c6e6 d141 895e 0843 c357 d742
00000280: 2b14 5d42 255a 4541 2cab 8b42 98ea 9242
00000290: 91a6 7742 d437 2444 fa6a 8543 58a7 c242
000002a0: 6a00 7743 588a 6d43 1d77 2943 75b9 a142
000002b0: 9d05 1843 c4c9 9742 00ec 9042 8d0f 2e43
000002c0: d94d fc41 ac10 3d42 6d5c b142 065a 3e43
000002d0: bbff ce42 b40a c442 011c c542 29a1 be42
000002e0: 2f9c 0e45 d3db aa40 122d 6b42 9a72 b042
000002f0: 6909 e342 39b5 e442 990e ba42 21fd 3741
00000300: c67f eb42 75d5 1a43 ea9a ae42 3f84 fa42
00000310: 8225 fd42 52e2 c742 915f 8942 91ca 1a43
00000320: 3ed4 8543 2cb3 b142 78c9 c743 ee2a da42
00000330: 22d5 e042 2a33 3643 dc75 1e41 feb3 0343
00000340: 1ef1 3a43 aa74 4543 a2ae 5543 b151 b242
00000350: 5a22 bc41 37ca c142 be95 f640 5366 0a43
00000360: 1d03 ce42 e41e cd42 8ce7 6742 efaa ae42
00000370: 03ec f342 b6e8 3643 c74b 8f42 bcaa 4142
00000380: edac ee42 d93b 5643 0e7d e541 b09a 2842
00000390: 4885 d942 5e50 6042 1dff d642 ab3a 7040
000003a0: 5409 9843 b65d a042 46fa 5e43 cd95 5242
000003b0: 2753 6c42 b37e 3f41 4b4d 4343 581c 1d43
000003c0: a80f 6b43 ae4d 6a41 d60f 0541 ba27 0343
000003d0: 7a09 bd42 d42d 3f3f 8b8e 8142 a807 473f
000003e0: c22e 8340 ed6f b141 86f8 0a43 b901 9b41
000003f0: 466a 2c43 d1c7 b742 41a6 b743 10a6 0243
592.2661 14.26062 18.96267 72.87101 79.91539 4.479406 243.3783 148.74388
69.7146 173.10028 97.95321 27.286772 110.122375 141.2497 47.672985 70.5407
15.787405 162.03024 433.16336 207.27255 303.75278 225.4533 41.43436 101.804535
240.70256 65.94741 722.5205 121.19814 170.85748 93.004364 123.41129 17.781864
155.8559 129.71019 554.91943 90.15157 113.072 95.38453 78.3018 40.47441
53.687027 129.54605 111.66962 109.73567 50.967934 86.02437 105.909035 140.44342
145.13469 444.96066 287.80515 171.24129 125.64115 146.96223 121.04585 152.49538
74.520775 90.85293 132.75372 290.6518 80.31091 141.11852 76.08684 162.52177
117.8438 9.140732 17.791782 52.881374 151.63676 310.75818 160.72292 56.517403
1.0453297 95.22801 105.720825 146.19673 69.49333 94.388435 199.8251 137.32137
7.946851 299.6911 64.02294 224.94545 70.46008 83.171455 71.61123 6.511523
317.26627 130.00461 254.78378 350.119 81.22624 107.19523 227.14172 1959.5801
418.80716 114.419266 226.00842 926.8073 40.07818 15.817776 25.225676 152.16742
101.588875 1180.9034 145.23111 122.17906 136.94186 158.55367 135.4788 132.7336
69.248695 80.82771 62.652462 453.99756 193.37209 3.937519 81.18335 92.07555
26.570745 119.92141 85.95631 216.68533 131.85324 157.24922 240.05956 265.47888
66.76446 78.669 140.10936 8.094983 189.12938 80.43168 893.9691 7.546857
5.541957 184.81065 74.7769 159.68756 274.6702 2.8918169 187.48842 52.38875
242.95299 83.77758 371.56363 80.09187 210.15736 126.14352 85.93783 170.51346
215.0051 10.561803 244.11021 150.51967 82.97695 26.237682 136.36928 107.67141
55.269695 12.334508 69.83432 73.45819 61.912663 656.8723 266.83575 97.32684
247.00162 237.5404 169.46529 80.86222 152.02193 75.89407 72.46094 174.06075
31.538012 47.26628 88.68052 190.35165 103.49947 98.020905 98.554695 95.314766
2281.7615 5.339334 58.794014 88.22383 113.51838 114.35395 93.02851 11.499299
117.74956 154.83382 87.30257 125.25829 126.57326 99.94203 68.68665 154.79128
267.65814 88.849945 399.57397 109.08385 112.416275 182.19986 9.903774 131.7031
186.94186 197.45572 213.68216 89.15955 23.516773 96.89495 7.705779 138.3997
103.00608 102.56033 57.97612 87.333855 121.96096 182.90903 71.648 48.416733
119.337746 214.23378 28.686062 42.151062 108.760315 56.078484 107.49827 3.7535808
304.07288 80.18303 222.97763 52.64629 59.081203 11.968432 195.30193 157.11072
235.06116 14.643965 8.316366 131.15518 94.51851 0.74679303 64.778404 0.7774606
4.0994577 22.179651 138.9708 19.375841 172.41513 91.89027 367.29886 130.64868

fc2.weight f4 [300, 402]
00000000: 922c ffbd edb1 43bc f411 743e e9ec a03e
00000010: 0f93 a53e 7f34 4b3e 625a 143c 6a8f a83e
00000020: d8d9 803e 35b8 b6bd 254b 0f3e 0a35 9e3d
00000030: 8b6b 64be 6ac1 5f3d 5ab6 13bf be4c c83d
00000040: ee8f 89be 4b5b c83e 46f3 1cbe 178b 183f
00000050: ad05 00be f979 0e3e 91b7 84be e944 c73d
00000060: 7ec9 3a3d e0f1 bebe fbb2 b73d d37c 04bf
00000070: ed77 3fbf d51d 123f 58b2 143e 73f9 d9be
00000080: bb67 203e f567 9d3e a5c6 bb3e a784 473e
00000090: 0b04 ccbe e7de b33e 197f 0e3f 9bfd 09bf
000000a0: 3c61 ab3e 35fc 843e d784 dbbc 8dc3 ce3e
000000b0: 9316 90bc 11dd 683e 7ee4 b23e 8f65 963c
000000c0: b8b7 273f 2c04 e43d 068b 04bf 14d7 243e
000000d0: 45f7 af3e a052 c53e 3889 0abe cd7a 17be
000000e0: 668b 563e 8944 2e3e 5ee6 0dbf 7f36 32bf
000000f0: 9362 143e 6004 b63e 2a54 903d ed2d 72be
00000100: 0799 8dbd 2ecb 0f3e a085 323e fa70 3b3e
00000110: 96dd 2fbf ef31 71be cf8c 00bf 7042 e93e
00000120: 058f 113b 4b06 96bd 328e 053f 3232 32be
00000130: 15f9 303e 6dec ebbd e064 0d3f d300 773e
00000140: ea6c a7bd e0a2 69be 840b 423e db3c 18be
00000150: 06b5 4d3e cea2 41be 5dd2 49be 0df8 573c
00000160: d197 f4be 0eaa 2a3e 8009 70bc 66bd 3f3e
00000170: d630 df3e 999d 92bd 6839 12bf 2bd2 91be
00000180: 1780 60be 814b 273d 7f4f a03e a6f9 74be
00000190: 67bc 30bc 4a5a 42bd 8341 1d3d 3f4a 583d
000001a0: 0f1a c1bd 85dd 9dbe 2abc 8ebe 3369 93bd
000001b0: ac80 abbd d623 b7be d245 4f3e 11a4 0fbf
000001c0: b6d3 cbbc a013 95bc 5ac6 813e 8bb9 553c
000001d0: 12c6 473e bea8 8bbb abf5 e33d 51ee 103e
000001e0: 9d5f 56bd 232d b13d b831 06be 2f6e fd3d
000001f0: 9886 a13e d9af 6d3e a79f 6b3f 594d 57be
00000200: 5475 bc3e 1e29 b6be 427f 273d 2ec3 f1be
00000210: a253 533c ebc0 edbd 83cf 3b3e b4c8 38bd
00000220: 526c 5a3e 6f89 013f ab9d fc3d 875c 1dbf
00000230: 86d3 183e 125a 873e 4e63 113c 5382 b2bc
00000240: 5f81 07bf 1b53 fcbe ca42 7bbe 9983 963e
00000250: ff92 bdbd ba00 073e bf84 153d b5fa 61bd
00000260: 96a0 5bbe 5c37 bb3c 136a b33e 357a b03d
00000270: 1410 a43e d3d7 2d3e 1949 393d dbdb 5dbc
00000280: e9a1 2d3f 1eac 513e a7d3 24bf 4070 3f3e
00000290: 40cc a13e 09a8 a93e dcec 3abf e403 94be
000002a0: 0d94 98bd 60b2 c8be f52d 1d3e ab48 3a3f
000002b0: b1d0 503e 19f1 64bd 703d 183e 900b 0cbe
000002c0: ea32 903e c6a9 a33e 26d8 9d37 ca36 19be
000002d0: a576 5e3e 3153 c0be 617e 073e b09b 12bf
000002e0: d76e e2bd 732f 2b3d 02c2 71be 4c3a 3dbe
000002f0: be60 cb3e 8412 dd3d abc1 47be cc9a 0b3e
00000300: 4898 a13d f0d6 fbbe b123 e93b 1e72 b1be
00000310: 81ff debe 6a27 823d f84f 3f3e ac76 203e
00000320: 3ab9 fe3e 5fbc 14bf 22f7 973e 7fcd 0dbd
00000330: 8d7d 18b8 1994 963d 5fd1 033d a6a3 853e
00000340: 72ec 42be cca7 573e 9e8a c2bd 5f42 0b3f
00000350: ec9c e4bd 634b 2d3f 0745 e13d cd38 1dbf
00000360: 33e2 2abe f56b 103f 9f75 d33e 6b26 35bd
00000370: 0c10 f43e c22b 06bc ac60 3abe f87c 39bd
00000380: 09c1 6ebd 2b82 153d 5ec7 d03d 6870 ab3e
00000390: 6a63 8a3e b55f c1bd 1d51 443e c5e6 0b3e
000003a0: e8ea 03bf 700c 373e c6b6 a03e ef95 233f
000003b0: bfc5 8fbe 7a12 df3d 7bb4 7bbd 44f1 bebe
000003c0: ae10 733e 736b 1f3e e05b 6a3e 3648 05bf
000003d0: 5997 88be 9580 54bc 17db d5be d97b b43a
000003e0: 87eb 6dbc b874 953e c462 323f b8e0 24bf
000003f0: 876b e53e eb9d 1bbd f0b4 e43d 5575 423e
-0.12459673 -0.011944276 0.23834974 0.31430748 0.3233876 0.19844244 0.009054752 0.32921916
0.25166202 -0.089218535 0.13993509 0.0772496 -0.2230665 0.054627813 -0.5770012 0.097802624
-0.26867622 0.3913215 -0.15327176 0.59587234 -0.12502165 0.13913716 -0.259213 0.097299404
0.045602314 -0.3729391 0.08969685 -0.51752967 -0.7479237 0.5707677 0.14521158 -0.42573127
0.1566457 0.30743375 0.3667499 0.19484197 -0.39846835 0.35130998 0.55662686 -0.53902596
0.3347262 0.2597367 -0.026796741 0.40383568 -0.01758889 0.2274058 0.3493995 0.018358974
0.6551471 0.11133608 -0.5177463 0.16097671 0.3436834 0.385396 -0.13528907 -0.14792939
0.20951614 0.17018332 -0.5542964 -0.69614404 0.14490728 0.35550213 0.07047303 -0.23650332
-0.06913953 0.1404235 0.17433786 0.18304816 -0.6869749 -0.23554204 -0.50214857 0.455585
0.002221049 -0.07325419 0.521701 -0.1740196 0.17282517 -0.11519704 0.5523205 0.24121408
-0.081750706 -0.22816038 0.18949705 -0.14866965 0.20088586 -0.18909761 -0.19709153 0.0131816985
-0.47772077 0.16666433 -0.0146507025 0.18724594 0.43591946 -0.071589656 -0.57118845 -0.28480658
-0.21923862 0.04084349 0.3131065 -0.23923358 -0.010787106 -0.047449388 0.038392555 0.05280518
-0.094287984 -0.30833068 -0.27877933 -0.071977995 -0.083741516 -0.35769528 0.20241478 -0.5610972
-0.024881225 -0.018197834 0.25346643 0.013044725 0.19509152 -0.004262059 0.11130842 0.1415341
-0.052337278 0.08651187 -0.13104904 0.123745315 0.31548 0.23211612 0.92040485 -0.210256
0.36808264 -0.35578245 0.040892847 -0.47219223 0.012898358 -0.11609062 0.18340878 -0.04511328
0.21330383 0.5060033 0.1233476 -0.6146931 0.1492444 0.26435906 0.008873774 -0.021790659
-0.5293178 -0.49282154 -0.24537197 0.29397276 -0.09256553 0.13183871 0.03650355 -0.055170733
-0.21447977 0.022853546 0.35041866 0.08617059 0.32043517 0.16976862 0.045235727 -0.013541187
0.6782518 0.20475814 -0.64385456 0.18695164 0.31601143 0.33136013 -0.7301767 -0.28909218
-0.074501134 -0.3919859 0.15349562 0.7276713 0.2039211 -0.05589399 0.14867187 -0.13676286
0.28163844 0.31965464 1.881651e-05 -0.14962307 0.21724947 -0.3756347 0.13231803 -0.5726881
-0.11056297 0.041793298 -0.23609164 -0.1847927 0.39722246 0.10794547 -0.19507472 0.13633269
0.078903735 -0.49187422 0.0071148505 -0.34657377 -0.4355431 0.06355174 0.1868285 0.1567027
0.49750692 -0.5809993 0.29680735 -0.034619804 -3.6356552e-05 0.07352466 0.032182094 0.26101416
-0.19035509 0.21060103 -0.094990954 0.5439815 -0.11162743 0.67693156 0.10999494 -0.61414796
-0.1668785 0.5641473 0.41300675 -0.04422609 0.47668493 -0.008189144 -0.1820094 -0.045285195
-0.05828956 0.03650109 0.10194276 0.33484197 0.27028972 -0.09442083 0.19171567 0.1366225
-0.51530313 0.17875838 0.31389445 0.63900656 -0.28080556 0.10892196 -0.061451416 -0.37293446
0.23736832 0.15568332 0.2288661 -0.5206331 -0.2667797 -0.0129701095 -0.41768715 0.001376982
-0.014521486 0.29190612 0.69681954 -0.64405394 0.448086 -0.0379924 0.111673236 0.18990071

fc2.bias f4 [300]
00000000: 140a 97bb 621e 4abd f722 4bbd e42b d6bc
00000010: 36c4 1ebd 484b 36bb a4ab 293d 1bd3 973c
00000020: 8393 22bd b54d 4abc 27dd 39bc a04a 843b
00000030: 5e66 233d b08b 8dbb 51df 563c 4c89 e8bc
00000040: 9f2b 123d 6d6d ef3b 9d2e 413d 8dd2 1b3d
00000050: f87c 09bd 624b c33b 8ada d3bc c58d 003d
00000060: 3253 0abd b514 223c cb5b 033d 8ab3 21bd
00000070: 39b5 c73b 456c cdbc e17a fe3c 4db7 5d3b
00000080: 199b 3e3d 0cab 89bc bbaf f63c 194b 5dbc
00000090: cf03 913c d316 cebc 42da 3bbd da11 41bd
000000a0: d8e3 363d 5adc ab3c d19b e6bc d4d3 91bc
000000b0: 973b 003d 35bb 4a3b 6405 3cbd 87fb 083d
000000c0: c4aa 413d 0d3d 6ebb 54e7 ff3c 7050 33bd
000000d0: 58da 243d ef68 b2bc dcd2 1c3d d596 d3b9
000000e0: 3de2 d33c af21 cfba d4a2 b0bc 90ce 35bb
000000f0: 7890 433d 451f 25bd d4e3 05bd 6c41 cf3c
00000100: ca52 43bd 6d33 3d3c 0c99 df3c 727e a5bc
00000110: b293 333d ec43 00bc 05ce c3bc d395 dd3b
00000120: b6b5 c33c 7207 043d 97a4 e4bc c3b0 3cbd
00000130: dd00 ebbb 5faf 32bd c014 f1bc d4a0 1a3d
00000140: 88aa 783b 9438 9fbc ffc8 d93b 0fa3 d03b
00000150: e09a e53c 9a44 febc d22f 273d ccc7 cebc
00000160: 28a1 22bd 0ea5 3c3d db23 93bc e346 1f3d
00000170: 5422 383d ca02 18bd 436d 37bd c626 06bd
00000180: f82e 483c a04b ecbb f1ab a4bb f672 353d
00000190: 0046 073d 6b69 0b3d 13f0 37bd 2624 803c
000001a0: b3f3 373d 4f26 29bc 0d12 34bd 900e 0abc
000001b0: 855d 413d 6a6d fcbc 828f 0abd e847 c2bc
000001c0: ce1e 20bd 5df6 ec3b 0899 9d3c 7cf8 113c
000001d0: f8db 06bd 3d69 27bd 8c41 84bc c033 3e3d
000001e0: 57a7 7e3b c9d4 0f3c e29c 213d 5ed1 b1bc
000001f0: fef9 093d 490c 193d db06 bebb a198 2a3d
00000200: 3002 1c3d e4ec da3a 1f39 0d3d 6670 673c
00000210: e9a3 4f3c d4e3 afbb 8472 333d 0377 63bc
00000220: 6c1b b63c 0c68 683c 4c62 4b3d f599 8e3c
00000230: 3c6e ac3c ef22 1abd be3b d03c 83e9 e33c
00000240: 8894 26bd 7328 903c 7539 c8bc 34ed cb3c
00000250: a119 093d 3118 90bc e1b0 143b de2a bb3c
00000260: 661a df3c 9cea 84bc b298 ec3c cab7 1abd
00000270: 72d8 9dbc a529 3ebd 3978 2fbc 9c24 dcbc
00000280: f149 593c 3ef4 12bd 7da7 ccbc a0bd 11bd
00000290: e019 04bc 4914 493d 26c4 293d db5c c9bc
000002a0: 50b4 01bd 1de9 80bc 7d3e 813b 60d0 f93c
000002b0: 72ba 1a3d f8a9 373c b73f 393d 02d5 b73c
000002c0: 3d13 f6bc 4fa2 ccbc 0803 e8bb 3560 d3bc
000002d0: bad1 1fbc 172d 103d 751e 2cbd 24e5 813c
000002e0: 40c9 54bc 1dbf 64bc 2118 abbc daa9 313d
000002f0: 9a6c 2ebd 14c3 6fbc 15dc 573c 769c e73c
00000300: 5565 dbbc 4797 c4bb d19a 38bc 2440 88bc
00000310: 75ce 983b 6564 1abc 6245 4abd aec6 1a3d
00000320: 8283 ec3c 7e7e 413b 72d3 06bd 6b4b a9ba
00000330: acf9 183d 4ecd 753c 3157 023d 806b 3e3d
00000340: 187b 3a3c a490 16bd d90b 7a3b 4545 3bbd
00000350: b459 4cbd 9507 3cbd df58 473d c07f b1bc
00000360: d99e 3a3d b7d2 25bd e6ed 0c3d 6535 b8bb
00000370: 4be5 42bc 5795 38bd 37ab 33bd 279b 413c
00000380: 994f 8bbc 6c3a 13bd 036f c1bc 383a 873c
00000390: 7915 3ebd 8382 383d 1d0b 9d3c 10d0 fdbc
000003a0: 52ad 753a f6a3 2b3d 5a1d 1f3d a3e6 b1bc
000003b0: d00d 83bc ebf1 ef3c 8d11 a13c 271f cb3c
000003c0: f783 103d c218 153d 30df 083d 417c 88bc
000003d0: 30cd e0bb 73cd 0fbd 1a99 72bb 3007 e4bb
000003e0: a81c 43bc 11d3 f6bb dd29 37bd c1b1 37bd
000003f0: e5b0 083c 6350 c13c c271 033d abeb b33c
-0.0046093557 -0.04934538 -0.049593892 -0.026143976 -0.03876134 -0.0027815867 0.041423455 0.01853328
-0.03969146 -0.012347628 -0.011344231 0.0040372163 0.039892547 -0.0043196306 0.013114766 -0.02838578
0.03568613 0.0073067457 0.047163595 0.038042594 -0.033566445 0.005959914 -0.025861043 0.031385202
-0.033770747 0.009892632 0.032069962 -0.039477862 0.0060946015 -0.025076041 0.031064453 0.003383118
0.04653463 -0.016805194 0.030113092 -0.013506674 0.017702011 -0.025157368 -0.045862444 -0.047136165
0.044650882 0.020979095 -0.02815047 -0.017801203 0.03130683 0.0030934338 -0.04590358 0.033443
0.047281995 -0.0036352307 0.031238236 -0.043777883 0.04024729 -0.021778552 0.03828703 -0.00040357435
0.025864715 -0.0015802885 -0.021562018 -0.002774153 0.047745198 -0.040313024 -0.032687977 0.02529975
-0.047686376 0.011547905 0.027294658 -0.020201895 0.043842025 -0.007828694 -0.023901949 0.006762245
0.023890357 0.032233663 -0.027910514 -0.04606701 -0.007171734 -0.04362428 -0.02942884 0.037751034
0.0037943441 -0.019436158 0.006646275 0.0063670943 0.028027952 -0.031038571 0.04081709 -0.025241755
-0.03970447 0.046055846 -0.017961433 0.038885962 0.044954613 -0.037112035 -0.044781934 -0.03275182
0.0122182295 -0.0072111636 -0.00502538 0.04429909 0.03302574 0.03403608 -0.044906687 0.015642237
0.044910144 -0.010324075 -0.043962527 -0.0084263235 0.047208328 -0.030813891 -0.033828266 -0.023715928
-0.039091878 0.007231517 0.01923801 0.008909341 -0.032924622 -0.040871847 -0.016144536 0.04643607
0.0038857067 0.008778759 0.039456256 -0.02170628 0.033685677 0.03736523 -0.005799157 0.041649465
0.038088024 0.0016702679 0.034478303 0.014125919 0.012673357 -0.0053677354 0.043810382 -0.013883355
0.022229873 0.014184963 0.04965429 0.017407397 0.021048658 -0.03763097 0.025419112 0.027821308
-0.040668994 0.017597413 -0.02444146 0.02489338 0.033471707 -0.01758966 0.0022688436 0.02284759
0.027234267 -0.016225152 0.028881405 -0.03777293 -0.019268248 -0.046426434 -0.010709816 -0.026872925
0.013262258 -0.03587746 -0.024982208 -0.03558123 -0.00806281 0.04909161 0.041446827 -0.02458041
-0.0316661 -0.015736157 0.0039442168 0.030494869 0.037775464 0.011209957 0.04522678 0.022440437
-0.03003847 -0.024979739 -0.0070804395 -0.025802711 -0.009754593 0.03519925 -0.042021234 0.015856333
-0.012987435 -0.013961581 -0.020885529 0.043374874 -0.04258404 -0.014633913 0.01317503 0.028272849
-0.026781717 -0.005999479 -0.01126738 -0.016632147 0.0046632835 -0.00942335 -0.049382575 0.037787132
0.028871302 0.0029524858 -0.032916494 -0.0012916153 0.03734748 0.015002562 0.031821433 0.04648924
0.011381887 -0.036759034 0.0038154034 -0.045720357 -0.049890235 -0.04590567 0.04866874 -0.021667361
0.045561645 -0.040484156 0.034406565 -0.0056215995 -0.011895488 -0.045064297 -0.043864455 0.011816776
-0.017005729 -0.035944387 -0.023612505 0.016507253 -0.046407197 0.04504634 0.019170338 -0.030983001
0.0009371835 0.041904412 0.03884635 -0.021716421 -0.015997797 0.02929016 0.01966169 0.024795128
0.0352821 0.036400564 0.033415973 -0.016660811 -0.0068603978 -0.03510804 -0.0037017525 -0.0069588646
-0.011908688 -0.0075324853 -0.04471766 -0.044847254 0.008342956 0.023597902 0.03209091 0.021962961
