checkpoint_actor.pth (torch_old, 536865 bytes, 14 tensors)

fc1.weight f4 [400, 24]
-0.002293393 -0.18279584 -0.0059986752 0.5566514 0.812752 0.17283589 -0.045057297 0.5108429
-0.11359695 -0.22774446 -0.14274003 -0.0051584286 0.30292594 0.56088567 -0.1711553 -0.024577042
-0.36373514 -0.23646367 -0.39623716 0.2506444 0.11987285 0.48182562 -0.42736217 0.2500016
0.5460484 0.6179614 -0.026917003 0.004936027 1.2153494 -0.5120414 -0.006243364 -0.061791725
0.5596072 0.56066287 -0.1443742 -0.12801978 0.8159879 -0.27006212 -0.17014524 -0.11527635
0.45587486 0.29208642 -0.11540679 0.17464904 0.7995268 -0.516937 -0.092190064 0.19765681
-0.76061386 0.19025452 -0.009247187 -0.41373968 -0.0016523704 0.35235336 0.037835978 -0.41790625
-1.0827076 0.11423895 0.068473294 -0.31076506 0.2990456 0.36440945 0.06310865 -0.3022548
-1.4460362 0.110273436 -0.013881158 -0.17930439 0.8383149 -0.14394093 0.03746552 -0.24946271
0.1142032 1.2910115 -0.033654314 -0.078368716 -0.15179197 -0.77418923 -0.047451023 -0.12351203
-0.07621318 1.4062335 0.009583434 0.03457783 -0.032004524 -1.3418462 0.016648412 0.037001684
-0.62163794 1.4196749 -0.010227186 0.072059475 0.14841166 -2.7137747 -0.05759068 0.10081736
-0.8123251 -0.8006926 0.08568527 -0.1325185 -0.021686003 0.41878778 0.047635425 -0.14559524
-0.9341769 -0.6867733 -0.03384498 0.027033381 0.050979085 0.18456008 -0.043180674 0.050586388
-1.4509801 -0.7753589 -0.33586115 -0.22323556 0.28379303 0.10886185 -0.26394245 -0.23627599
0.6496336 -0.6325148 0.033477172 0.4094504 -0.29340917 -0.71138877 0.033134535 0.40489876
0.8546031 -0.72855705 0.0037798171 0.0434929 -0.15903357 -0.91214514 0.00043925553 0.0055943565
1.2236241 -0.80088854 0.013967437 -0.3559047 -0.1692084 -0.7855089 0.026882173 -0.33072665
0.04676943 -0.018505992 -0.027958794 0.02839748 -0.04300366 -0.013433842 0.027001524 0.03646662
0.042177826 -0.030927481 -0.036727384 0.0040503256 0.011877481 -0.048966583 -0.028462198 0.006541236
-0.008710879 0.0028129886 -0.00080527575 -0.017766472 -0.017023256 0.021324065 -0.008364916 -0.046672132
-0.45086795 -0.105317086 -0.15207289 -0.118693635 -0.060156304 0.12391347 -0.07201846 -0.0523006
-0.44731158 -0.11853029 -0.12921132 -0.0046084984 0.042292107 -0.5891778 -0.09459885 -0.08495768
-0.79538095 -0.38525492 -0.42233807 -0.77038455 0.084604576 -0.76884514 -0.40239933 -0.73464984
-0.30521703 -0.38635275 0.021797664 -0.95883906 -0.14782761 0.9314602 -0.02861599 -1.0242051
-0.15929748 -0.6346976 0.12236345 -0.33016366 -0.043438688 1.2410129 0.09782387 -0.35016918
-0.2169774 -0.5611524 0.06029023 0.19353113 0.25188118 1.3501301 0.060322102 0.23943311
0.43930227 -0.498709 0.1271981 -0.100477025 -0.37474844 -0.6424283 0.07613345 -0.11643115
0.52836686 -0.6145948 -0.022431172 -0.1469289 -0.20388232 -0.5281344 0.028640542 -0.12393794
0.7649804 -0.9213291 0.006402888 -1.2432027 0.025014281 -0.56058455 -0.024942253 -1.2861582
-0.12432805 0.2990466 0.017100688 0.02039563 0.20610605 0.35779953 -0.016057067 -0.0681929
0.18899243 0.34261575 -0.009258776 -0.06762626 -1.1358037 0.06975026 0.007983776 -0.113791086
00000000: c04c 16bb d52e 3bbe 8990 c4bb b580 0e3f
00000010: 8410 503f e4fb 303e 008e 38bd 9ac6 023f
00000020: 85a5 e8bd d835 69be 712a 12be 0908 a9bb
00000030: 1c19 9b3e 3496 0f3f 5643 2fbe cb55 c9bc
00000040: 7e3b babe 8823 72be 99df cabe 7654 803e
00000050: e67f f53d d9b1 f63e 37cf dabe 3600 803e
00000060: d4c9 0b3f b832 1e3f 0c81 dcbc 65be a13b
00000070: 9290 9b3f 2515 03bf 2295 ccbb 5219 7dbd
00000080: 6b42 0f3f 9a87 0f3f d5d6 13be 9e17 03be
00000090: 95e4 503f 9545 8abe 8e3a 2ebe 0216 ecbd
000000a0: 6e68 e93e 5a8c 953e 655a ecbd 33d7 323e
000000b0: caad 4c3f fc55 04bf 25ce bcbd 8c66 4a3e
000000c0: 97b7 42bf 15d2 423e 8381 17bc b0d5 d3be
000000d0: 5a94 d8ba a967 b43e e6f9 1a3d cff7 d5be
000000e0: 2a96 8abf 1cf6 e93d ba3b 8c3d 991c 9fbe
000000f0: 811c 993e e093 ba3e 1c3f 813d 24c1 9abe
00000100: b717 b9bf 0ad7 e13d cc6d 63bc 929b 37be
00000110: ce9b 563f 4065 13be 7275 193d 2773 7fbe
00000120: 5ee3 e93d dd3f a53f 1bd9 09bd c77f a0bd
00000130: 5b6f 1bbe 4431 46bf 015c 42bd e0f3 fcbd
00000140: a815 9cbd 76ff b33f d603 1d3c 7ca1 0d3d
00000150: 2d17 03bd 9ec1 abbf 4062 883c 148f 173d
00000160: aa23 1fbf e8b7 b53f ed8f 27bc eb93 933d
00000170: 3af9 173e 7cae 2dc0 34e4 6bbd 5579 ce3d
00000180: 8af4 4fbf 31fa 4cbf c27b af3d eeb2 07be
00000190: d8a6 b1bc 5a6b d63e 5d1d 433d eb16 15be
000001a0: 3826 6fbf 60d0 2fbf 09a1 0abd 1c75 dd3c
000001b0: 72cf 503d 51fd 3c3e 38de 30bd ac33 4f3d
000001c0: b7b9 b9bf ec7d 46bf fef5 abbe dd97 64be
000001d0: 524d 913e f6f2 de3d 7723 87be 55f2 71be
000001e0: 634e 263f 7dec 21bf 5c1f 093d 7ca3 d13e
000001f0: ba39 96be 931d 36bf 14b8 073d e44e cf3e
00000200: 45c7 5a3f b782 3abf cfb6 773b 9c25 323d
00000210: b2d9 22be 5882 69bf e14b e639 dd50 b73b
00000220: b79f 9c3f 0807 4dbf add7 643c 2439 b6be
00000230: f844 2dbe 1c17 49bf 0138 dc3c 0155 a9be
00000240: 4d91 3f3d e199 97bc d709 e5bc d5a1 e83c
00000250: 9b24 30bd 9e19 5cbc 4d32 dd3c 065e 153d
00000260: a8c2 2c3d a15b fdbc 746f 16bd 98b8 843b
00000270: c499 423c 2f91 48bd 8e29 e9bc dd57 d63b
00000280: 13b8 0ebc 1e5a 383b 2419 53ba fe8a 91bc
00000290: 5b74 8bbc ceaf ae3c 000d 09bc 472b 3fbd
000002a0: 2ad8 e6be 7cb0 d7bd ffb8 1bbe a615 f3bd
000002b0: 7566 76bd 58c6 fd3d 6a7e 93bd 2739 56bd
000002c0: 0606 e5be 02c0 f2bd f94f 04be e302 97bb
000002d0: 7d3a 2d3d 5bd4 16bf 0bbd c1bd 4bfe adbd
000002e0: 169e 4bbf 2240 c5be b23c d8be ec37 45bf
000002f0: 2a45 ad3d 09d3 44bf 4907 cebe 0312 3cbf
00000300: 6845 9cbe 07d0 c5be 0491 b23c 7a76 75bf
00000310: 1f60 17be 2d74 6e3f 156c eabc 2719 83bf
00000320: e11e 23be 8b7b 22bf b099 fa3d 360b a9be
00000330: c4ec 31bd 83d9 9e3f e257 c83d 6049 b3be
00000340: 532f 5ebe afa7 0fbf e3f2 763d 062d 463e
00000350: 92f6 803e 10d1 ac3f 4f14 773d f42d 753e
00000360: 3aec e03e c956 ffbe 3840 023e e6c6 cdbd
00000370: 07df bfbe 2e76 24bf dbeb 9b3d 7473 eebd
00000380: 0d43 073f 1656 1dbf 94c1 b7bc 8874 16be
00000390: 87c6 50be d133 07bf 929f ea3c 2dd3 fdbd
000003a0: c1d5 433f 39dc 6bbf 51cf d13b 4421 9fbf
000003b0: c0ea cc3c 7882 0fbf b253 ccbc d5a0 a4bf
000003c0: b49f febd a31c 993e be16 8c3c bc14 a73c
000003d0: 770d 533e 8031 b73e 1c8a 83bc b8a8 8bbd
000003e0: 3b87 413e 556b af3e 1fb2 17bc a37f 8abd
000003f0: 0462 91bf 39d9 8e3d 62ce 023c 4d0b e9bd

fc1.bias f4 [400]
0.08352755 0.011516217 -0.1808114 -0.076483294 0.12818311 0.116809115 0.07061297 0.18018094
-0.10612576 -0.060944755 -0.030400412 -0.05007005 0.17607883 -0.20397796 0.038735725 0.20035923
-0.11342923 0.16224997 -0.17589152 0.034512777 -0.116210245 0.064584434 0.04466304 0.044876587
-0.046305105 -0.06325241 -0.19766943 0.03390461 0.19487347 -0.15361421 -0.07852696 0.05359002
0.104315616 0.074136116 0.13224863 0.025817849 -0.050220683 -0.17014751 -0.20407018 -0.15628947
0.102444924 0.18346938 0.19430509 0.1528719 0.010250227 0.14052042 0.0775973 -0.13812561
-0.038313225 -0.18944517 0.17522779 0.0443504 0.18744543 -0.024730781 0.162197 0.09554122
-0.024918905 -0.0067483634 0.14548013 -0.026913993 0.15871038 0.044791587 -0.07997735 -0.0946119
-0.099297345 0.13096593 0.15428019 -0.09608114 -0.18632974 0.11569333 -0.04643063 -0.1874225
0.042855397 -0.020424044 0.14701687 0.043307383 -0.12582125 -0.036911227 -0.14658095 0.095445216
0.05971118 0.12050352 -0.15110536 -0.113623165 -0.12421935 -0.16925348 -0.1904082 -0.16464378
0.14219715 -0.061560236 -0.037680924 0.061523587 0.053763684 0.09179707 -0.14411516 0.18128666
-0.01632995 -0.09695788 0.1317389 -0.1697284 -0.121739425 0.115020335 0.0791383 -0.08081224
-0.016334321 -0.037228283 0.08310408 0.040933084 0.0748005 0.16864946 -0.14043292 -0.15702006
-0.048424445 -0.09297155 -0.14517063 0.1894545 0.17053983 0.1648185 -0.12572184 -0.02423942
-0.15867026 -0.073470436 0.17005788 0.02558277 0.0707959 -0.20284483 0.083961904 0.1378103
-0.07827223 0.15535565 0.091934696 -0.14911307 -0.15307947 0.0029696152 -0.19688684 -0.1426231
0.07981843 -0.06713683 -0.007212793 -0.08341157 0.13209583 0.16761833 0.14721233 -0.18151405
-0.060362883 0.098862946 0.120991476 -0.045740366 0.11176482 -0.0060204417 0.022702333 0.13750745
0.13963948 -0.14410688 -0.1239688 0.07230612 0.1227098 -0.04755087 0.18102525 -0.023517752
-0.103529274 -0.020843929 -0.1737274 0.06337688 -0.18767186 0.18945947 -0.15489723 0.13289736
-0.15310912 -0.029740361 -0.11303547 0.10430169 0.118354544 -0.19087246 -0.17525928 0.026871847
-0.0043905657 0.0011786958 0.06214368 -0.040307857 0.17223604 0.014590628 -0.093996026 0.07084678
-0.15837774 -0.09758964 0.059541658 -0.08564732 -0.19486697 0.10209518 0.052536517 0.05940305
0.07094663 -0.20149298 -0.088916466 -0.099184096 0.19530939 -0.08602354 -0.13421129 -0.07158879
0.019606743 0.08227115 0.15031275 0.14744484 0.020840181 0.18594272 0.108521506 0.1089535
-0.1750376 0.016676426 -0.04338245 -0.19398193 -0.100832745 0.15531304 0.07483513 0.18865414
0.13919449 -0.0015546789 0.18342605 0.04304049 -0.030003525 -0.087236255 0.13153844 0.09145547
0.14170784 -0.035406303 -0.1888985 0.037005577 0.022338122 -0.13283321 0.049535617 -0.024698569
0.17409179 0.00959973 -0.10081288 0.1634367 0.006081613 -0.03462808 0.09746549 0.19695586
0.09307879 0.005745043 0.16720925 -0.0895111 0.18041205 -0.116301306 0.0037380774 0.18577501
0.081283405 -0.042778388 0.12575728 0.12040319 -0.18399937 -0.022755058 -0.16064832 -0.043914948
00000000: 7e10 ab3d 84ae 3c3c a026 39be 46a3 9cbd
00000010: 6f42 033e 9e39 ef3d 889d 903d 5a81 383e
00000020: 7658 d9bd 35a1 79bd 490a f9bc 4116 4dbd
00000030: 024e 343e 99df 50be 5aa9 1e3d f82a 4d3e
00000040: 964d e8bd db24 263e e81c 34be 455d 0d3d
00000050: a3ff edbd d844 843d 98f0 363d 83d0 373d
00000060: 6caa 3dbd 7b8a 81bd db69 4abe 8fdf 0a3d
00000070: e98c 473e 0b4d 1dbe bed2 a0bd 3581 5b3d
00000080: 6da3 d53d add4 973d 2f6c 073e f47f d33c
00000090: 34b4 4dbd 263b 2ebe c6f7 50be 590a 20be
000000a0: a5ce d13d 66df 3b3e eaf7 463e 748a 1c3e
000000b0: 91f0 273c 96e4 0f3e 55eb 9e3d cd70 0dbe
000000c0: 54ee 1cbd eafd 41be ea6e 333e c4a8 353d
000000d0: b2f1 3f3e 3598 cabc f816 263e 1dab c33d
000000e0: bb22 ccbc 6021 ddbb bef8 143e bc7a dcbc
000000f0: f984 223e 6277 373d 2acb a3bd e2c3 c1bd
00000100: 685c cbbd ef1b 063e a0fb 1d3e 30c6 c4bd
00000110: 39cd 3ebe a0f0 ec3d 0b2e 3ebd afeb 3fbe
00000120: 2489 2f3d 5350 a7bc 978b 163e 1563 313d
00000130: 49d7 00be 3a30 17bd 5119 16be c878 c33d
00000140: b693 743d 8dca f63d 5dbb 1abe 43b3 e8bd
00000150: b766 febd c950 2dbe 5efa 42be 6198 28be
00000160: 219c 113e 9626 7cbd 5057 1abd 2800 7c3d
00000170: 4f37 5c3d 1a00 bc3d ed92 13be 36a3 393e
00000180: 63c6 85bc da91 c6bd 90e6 063e 48cd 2dbe
00000190: 8552 f9bd c88f eb3d 4313 a23d e380 a5bd
000001a0: 8ecf 85bc af7c 18bd 7932 aa3d 73a9 273d
000001b0: 0131 993d 72b2 2c3e a6cd 0fbe dec9 20be
000001c0: b658 46bd de67 bebd 9ca7 14be 5c00 423e
000001d0: fea1 2e3e 2ec6 283e 3abd 00be c091 c6bc
000001e0: 757a 22be ab77 96bd a723 2e3e f592 d13c
000001f0: 71fd 903d 8eb6 4fbe 38f4 ab3d 251e 0d3e
00000200: 314d a0bd 8d15 1f3e 4248 bc3d 19b1 18be
00000210: ddc0 1cbe e09d 423b b49c 49be ca0b 12be
00000220: d877 a33d 097f 89bd 4b59 ecbb afd3 aabd
00000230: 2144 073e 24a4 2b3e d4be 163e d2de 39be
00000240: 123f 77bd a878 ca3d 61ca f73d 405a 3bbd
00000250: f4e4 e43d 2047 c5bb 3efa b93c c1ce 0c3e
00000260: a7fd 0e3e c190 13be 5be3 fdbd 3b15 943d
00000270: 474f fb3d b3c4 42bd af5e 393e 4da8 c0bc
00000280: 2807 d4bd e3c0 aabc 98e5 31be bdcb 813d
00000290: 0d2d 40be aa01 423e 619d 1ebe 3f16 083e
000002a0: a3c8 1cbe 0fa2 f3bc 247f e7bd 209c d53d
000002b0: de63 f23d 1274 43be 2b77 33be 5922 dc3c
000002c0: bcde 8fbb 787e 9a3a 5f8a 7e3d da19 25bd
000002d0: a55e 303e 880d 6f3c fd80 c0bd 1e18 913d
000002e0: c62d 22be 14dd c7bd f4e1 733d dd67 afbd
000002f0: 358b 47be 4717 d13d 8830 573d 9d50 733d
00000300: 774c 913d 2d54 4ebe d619 b6bd 0821 cbbd
00000310: 2fff 473e 1c2d b0bd af6e 09be 259d 92bd
00000320: 529e a03c c77d a83d 96eb 193e c8fb 163e
00000330: 07b9 aa3c c567 3e3e 8640 de3d 0323 df3d
00000340: 0e3d 33be 009d 883c ccb1 31bd 33a3 46be
00000350: 6681 cebd 620a 1f3e 2943 993d 8d2e 413e
00000360: 0089 0e3e 5ec6 cbba 0ad4 3b3e 3a4b 303d
00000370: f4c9 f5bc eca8 b2bd 03b2 063e 014d bb3d
00000380: dc1b 113e 3306 11bd 9c6e 41be 2993 173d
00000390: 70fe b63c 6e05 08be dce5 4a3d a754 cabc
000003a0: 1e45 323e 3048 1d3c fc76 cebd f35b 273e
000003b0: 4448 c73b 2cd6 0dbd fd9b c73d ccae 493e
000003c0: 18a0 be3d ea40 bc3b e738 2b3e 9851 b7bd
000003d0: f0bd 383e 612f eebd 88fa 743b ce3b 3e3e
000003e0: ea77 a63d 6438 2fbd 84c6 003e f395 f63d
000003f0: 556a 3cbe d168 babc fe80 24be 29e0 33bd

bn1.weight f4 [400]
0.4589291 0.43934283 0.44289598 0.4504203 0.48580918 0.52479744 0.0043169204 0.41152883
0.4654197 0.47357598 0.5987026 0.5524138 0.49864987 0.3071458 0.68395054 0.40457582
0.34574762 0.3705389 0.4977363 0.51265854 0.30481058 0.36513552 0.47221863 0.84004676
0.006905445 0.29396945 0.4711365 0.57922554 0.3657305 0.39926144 0.40259248 0.64264196
0.46020114 0.12799928 0.3984902 0.32502607 0.03462835 0.24927367 0.46275055 0.58691657
0.5375286 0.2748013 0.35836032 0.32648364 0.8303211 0.73909336 0.35792834 1.1046201
0.3322319 0.414481 -0.0023787187 0.5724271 0.01517512 0.33507505 0.81872547 0.36402658
0.5577785 0.6434478 0.065850616 0.60717696 0.515715 0.46526125 0.4147321 0.31340373
0.40457323 0.46628064 0.36296082 0.59686023 0.3659803 0.008333224 0.26170966 -0.0036176124
-0.0022881066 0.6471151 0.42279103 0.42385334 0.3350212 0.3050185 0.0063176933 0.018469619
0.35236013 0.46765774 0.39428464 -0.009900279 0.01966107 0.3476717 0.46934977 0.54504406
0.5167346 0.3361654 0.32298872 0.83347714 0.4749249 0.50525 0.50243056 0.58423215
0.45837602 0.47742084 0.40187603 0.32149857 0.42370892 0.13822487 0.3130406 0.7048754
0.58492243 0.4649894 0.55093855 0.5278171 0.6231109 0.5750356 0.72078234 0.061452527
0.27412122 0.52221274 0.5122945 0.37904945 0.5082484 0.0045323875 0.55739385 0.46095914
0.7575045 0.5699767 0.39047134 0.47032434 0.5534149 0.65310514 0.7399907 0.40142924
0.8805941 0.44178897 0.6023466 0.48544872 0.4714905 0.49537653 0.3462747 0.3993343
0.407405 0.28724706 0.23934056 0.41007617 0.38884687 0.09394955 0.50348276 0.36412388
0.505792 -0.005570019 0.57757354 0.39376476 0.505632 0.3784664 0.3767146 0.5378245
0.4028463 0.45245707 0.5325579 0.367683 0.39428362 0.49949154 0.48774725 0.33791047
0.3085669 0.1930305 0.31812972 0.78661793 0.32866305 0.57295203 0.28847829 0.21814899
0.49466103 0.36290216 0.33548677 0.3635806 0.41159096 0.7118567 0.42795962 0.049949422
0.4712883 0.33642125 0.47758332 0.53495926 0.3472052 1.0464141 0.41468614 0.7090528
0.4470955 0.35399315 0.24574326 0.33334318 0.3753505 0.34385136 -0.008406493 0.37924835
0.268857 0.30563518 0.30048195 0.5333584 0.3530168 0.3690117 0.4962362 0.9764412
0.46953967 0.39571142 0.66831076 0.4555103 0.4770008 0.40033457 0.38232708 0.5781781
0.5980734 -0.010200996 0.60514617 0.29503867 0.5690075 0.010740142 0.44878873 0.3327486
0.33726206 0.39022455 0.42024103 0.32462674 0.31016716 0.38229042 0.40996826 0.80461997
0.69496655 0.65400416 0.46436825 0.73185027 -0.0014752346 0.43883565 0.5674365 0.21998717
0.39132828 0.21928404 0.34619555 0.47724313 0.47428966 1.5459491 0.4289281 0.44377494
0.58183306 0.38958997 0.48741484 0.27186248 0.282018 0.00025242736 0.70134395 -0.003708293
0.15706897 0.02126258 0.5961792 0.46684432 0.59030694 0.37173283 0.51675886 0.66542876
00000000: c1f8 ea3e 8bf1 e03e 43c3 e23e 7d9d e63e
00000010: fbbb f83e 2059 063f f474 8d3b e8b3 d23e
00000020: 7e4b ee3e 8d78 f23e 9344 193f fe6a 0d3f
00000030: 094f ff3e 3742 9d3e 6217 2f3f 9024 cf3e
00000040: d505 b13e 46b7 bd3e 4bd7 fe3e 973d 033f
00000050: 2210 9c3e 0bf3 ba3e a4c6 f13e 4e0d 573f
00000060: 1247 e23b 2a83 963e ce38 f13e 2048 143f
00000070: 0741 bb3e ff6b cc3e 9a20 ce3e 2f84 243f
00000080: 7c9f eb3e 3e12 033e e806 cc3e d169 a63e
00000090: 75d6 0d3d 9941 7f3e a4ed ec3e 2a40 163f
000000a0: 799b 093f c2b2 8c3e 017b b73e dd28 a73e
000000b0: ec8f 543f 3935 3d3f 6242 b73e 3164 8d3f
000000c0: 4d1a aa3e db36 d43e 47e4 1bbb 958a 123f
000000d0: 11a1 783c f58e ab3e fe97 513f b161 ba3e
000000e0: 92ca 0e3f ffb8 243f b0dc 863d f36f 1b3f
000000f0: e605 043f b936 ee3e c457 d43e 7476 a03e
00000100: 3924 cf3e 56bc ee3e 00d6 b93e d5cb 183f
00000110: c561 bb3e 1388 083c cffe 853e 7715 6dbb
00000120: 0ff4 15bb 56a9 253f 1178 d83e 4e03 d93e
00000130: e687 ab3e 632b 9c3e a704 cf3b 994d 973c
00000140: 8c68 b43e d670 ef3e addf c93e c834 22bc
00000150: 4110 a13c 0602 b23e 9d4e f03e 0288 0b3f
00000160: b848 043f df1d ac3e c75e a53e c25e 553f
00000170: 5b29 f33e 1058 013f 4a9f 003f 3d90 153f
00000180: 43b0 ea3e 8170 f43e b2c2 cd3e 769b a43e
00000190: 60f0 d83e d28a 0d3e dc46 a03e b772 343f
000001a0: 7abd 153f 1713 ee3e 4f0a 0d3f 051f 073f
000001b0: 3284 1f3f 8835 133f 3185 383f a5b5 7b3d
000001c0: 9e59 8c3e bcaf 053f bb25 033f c512 c23e
000001d0: 911c 023f 6c84 943b 5db1 0e3f d602 ec3e
000001e0: d1eb 413f fee9 113f dceb c73e 5ace f03e
000001f0: 99ac 0d3f e631 273f 0870 3d3f 2288 cd3e
00000200: 9d6e 613f 2a32 e23e 6333 1a3f bc8c f83e
00000210: 3467 f13e fea1 fd3e eb4a b13e 8c75 cc3e
00000220: 6397 d03e 0c12 933e b115 753e 81f5 d13e
00000230: f016 c73e 9f68 c03d 3fe4 003f 726e ba3e
00000240: 967b 013f b584 b6bb dcdb 133f 899b c93e
00000250: 1971 013f 59c6 c13e bce0 c03e deae 093f
00000260: df41 ce3e 74a8 e73e b755 083f f240 bc3e
00000270: 8bdf c93e 5bbd ff3e 02ba f93e 9a02 ad3e
00000280: 7bfc 9d3e caa9 453e e6e1 a23e cb5f 493f
00000290: 8646 a83e fcac 123f 6db3 933e 7362 5f3e
000002a0: 3644 fd3e 50ce b93e ecc4 ab3e 3d27 ba3e
000002b0: 0dbc d23e 3e3c 363f 861d db3e c497 4c3d
000002c0: b34c f13e 683f ac3e cd85 f43e 17f3 083f
000002d0: e1c4 b13e e6f0 853f be51 d43e 7c84 353f
000002e0: b4e9 e43e 973e b53e 1fa4 7b3e f5ab aa3e
000002f0: f12d c03e 490d b03e 63bb 09bc d72c c23e
00000300: a0a7 893e 377c 9c3e c5d8 993e 2d8a 083f
00000310: 9ebe b43e 1aef bc3e ac12 fe3e 0df8 793f
00000320: 8167 f03e b09a ca3e 6a16 2b3f a538 e93e
00000330: 7339 f43e a7f8 cc3e 60c0 c33e 7b03 143f
00000340: 571b 193f 1422 27bc dcea 1a3f 4f0f 973e
00000350: 7aaa 113f 6cf7 2f3c a3c7 e53e 065e aa3e
00000360: 9dad ac3e 83cb c73e d529 d73e 7a35 a63e
00000370: 3bce 9e3e 92bb c33e 5ce7 d13e 93fb 4d3f
00000380: 54e9 313f d16c 273f adc1 ed3e 8a5a 3b3f
00000390: a95c c1ba 11af e03e 8543 113f 5144 613e
000003a0: 2e5c c83e ff8b 603e 8b40 b13e 3659 f43e
000003b0: 18d6 f23e a9e1 c53f 779c db3e 7836 e33e
000003c0: 03f3 143f 5678 c73e 708e f93e 8f31 8b3e
000003d0: aa64 903e 3a58 8439 478b 333f d506 73bb
000003e0: b0d6 203e dd2e ae3c 339f 183f 3806 ef3e
000003f0: 5b1e 173f c453 be3e 4f4a 043f 8a59 2a3f

bn1.bias f4 [400]
-0.3749309 -0.41587806 -0.40805024 -0.75221443 -0.46410924 -0.6134228 -0.036164463 -0.47601175
-0.52151674 -0.37678537 -0.54916227 -0.44790757 -0.6893901 -0.4456505 -0.67244214 -0.06587267
-0.4529685 -0.37083423 -0.6554502 -0.31123498 -0.4079941 -0.58441436 -0.6443466 -0.80698013
-0.032737356 -0.1841127 -0.3709184 -0.7005939 -0.33549547 -0.48607096 -0.41393155 -0.77600724
-0.7578738 -0.4807324 -0.42063782 -0.343191 -0.10250467 -0.49934143 -0.5823722 -0.7285499
-0.54492193 -0.30880615 -0.42583475 -0.5073889 -0.7882152 -0.7313078 -0.6141672 0.13866799
-0.44386777 -0.42369592 -0.05813783 -0.7389718 -0.10854824 -0.4326145 -0.2559612 -0.4217647
-0.33697245 -0.79422104 -0.22986624 -0.8582167 -0.64710313 -0.5877942 -0.48181528 -0.5421497
-0.36833638 -0.6127346 -0.19279587 -0.6256789 -0.54395026 -0.040792987 -0.33189055 -0.12390563
-0.017889626 -0.7632197 -0.7116587 -0.41830677 -0.45375907 -0.30366036 -0.0268363 -0.07190945
-0.47084266 -0.6057177 -0.5563756 -0.05107306 -0.07899761 -0.28774247 -0.4098038 -0.47436738
-0.5814181 -0.27755007 -0.23527887 -0.95711493 -0.4521365 -0.40298784 -0.6076308 -0.0896994
-0.7965974 -0.80932033 -0.49526152 -0.32839918 -0.60044944 -0.4571637 -0.41477174 -0.7137306
-0.33803368 -0.58777285 -0.6237464 -0.5429169 -0.74547154 -0.69184583 -0.7547512 -0.23837733
-0.3881552 -0.5885616 -0.4939045 -0.4203327 -0.4272305 -0.027664661 -0.4810814 -0.57173604
-0.71690345 -0.6810566 -0.436003 -0.49589837 -0.5109113 -0.56656057 -0.06615633 -0.35139695
-0.36767355 -0.5075647 -0.72850335 -0.51675934 -0.53039324 -0.5005603 -0.32092038 -0.5390903
-0.24268815 -0.21943398 -0.2770511 -0.4521371 -0.46078894 -0.31855282 -0.52520716 -0.46600908
-0.5702243 -0.05613987 -0.8200652 -0.54209256 -0.6799137 -0.49494496 -0.3720154 -0.59404325
-0.37641168 -0.55534184 -0.51631594 -0.26938608 -0.8900667 -0.82085496 -0.59228444 -0.50213605
-0.31438547 -0.5248809 -0.33020815 -0.5766688 -0.40319502 -0.3379679 -0.33682352 -0.33973834
-0.8216893 -0.5596316 -0.35104564 -0.5785632 -0.66841245 0.049454283 -0.5197906 -0.18148966
-0.4966192 -0.5177476 -0.6604857 -0.217364 -0.45022622 -0.7439012 -0.5099979 -0.59740883
-0.16916768 -0.36338496 -0.19806404 -0.2513886 -0.5432168 -0.38717583 -0.061366174 -0.5374232
-0.35823622 0.059403248 -0.36019182 -0.64656526 -0.4459555 -0.71387464 -0.65162355 -0.17856535
-0.47594735 -0.51626134 -0.8943634 -0.508363 -0.5517905 -0.50934047 -0.49266648 -0.42644423
-0.51830804 -0.036006402 -0.6839217 -0.46035123 -0.8462568 -0.18491946 -0.625185 -0.39180958
-0.28362617 -0.55152726 -0.527205 -0.58202356 -0.43676755 -0.28034747 -0.52699566 -0.22646
-0.29646274 -0.5991181 -0.47565508 -0.52371633 -0.018972058 -0.32299012 -0.5016357 -0.10988703
-0.33258256 -0.47847888 -0.5550991 -0.53886163 -0.72081983 0.9859054 -0.1989652 -0.4583134
-0.7517814 -0.5709928 -0.4770912 -0.18851912 -0.31926635 -0.0129035525 -0.39290282 -0.017435072
-0.55831915 -0.22052386 -0.08998543 -0.31190547 -0.7960503 -0.7131643 -0.83183193 -0.8115423
00000000: f1f6 bfbe f8ed d4be f6eb d0be 2091 40bf
00000010: ba9f edbe 4709 1dbf 3021 14bd d0b7 f3be
00000020: 1f82 05bf 03ea c0be e695 0cbf 2454 e5be
00000030: df7b 30bf 4d2c e4be 2b25 2cbf 40e8 86bd
00000040: 7deb e7be fcdd bdbe 96cb 27bf 315a 9fbe
00000050: 9ae4 d0be 2e9c 15bf e6f3 24bf 4096 4ebf
00000060: 9b17 06bd 0a88 3cbe 04e9 bdbe 1f5a 33bf
00000070: 10c6 abbe 4bde f8be d6ee d3be 69a8 46bf
00000080: 0404 42bf 8f22 f6be d75d d7be bbb6 afbe
00000090: f8ed d1bd aea9 ffbe 5816 15bf 3f82 3abf
000000a0: 0180 0bbf d71b 9ebe 0307 dabe 3de4 01bf
000000b0: 79c8 49bf fd36 3bbf 103a 1dbf fbfe 0d3e
000000c0: a342 e3be acee d8be ef21 6ebd 422d 3dbf
000000d0: 8a4e debd a67f ddbe 590d 83be 8bf1 d7be
000000e0: a787 acbe 1252 4bbf 0e62 6bbe 17b4 5bbf
000000f0: 8da8 25bf ae79 16bf 7eb0 f6be 53ca 0abf
00000100: 9696 bcbe 2ddc 1cbf 486c 45be 7e2c 20bf
00000110: 5340 0bbf 8c16 27bd 8fed a9be 3cc2 fdbd
00000120: 448d 92bc 5e62 43bf 442f 36bf 4e2c d6be
00000130: 1c53 e8be 5f79 9bbe cdd7 dbbc 4345 93bd
00000140: 4a12 f1be 5110 1bbf a26e 0ebf fc31 51bd
00000150: 80c9 a1bd fb52 93be ced1 d1be 48e0 f2be
00000160: d1d7 14bf 0b1b 8ebe f2ec 70be 7c05 75bf
00000170: 6f7e e7be 6c54 cebe b18d 1bbf 52b4 b7bd
00000180: cfed 4bbf 9e2f 4fbf eb92 fdbe f023 a8be
00000190: 0eb7 19bf 5c11 eabe f65c d4be 0cb7 36bf
000001a0: c012 adbe 4878 16bf d8ad 1fbf 9afc 0abf
000001b0: 39d7 3ebf cf1c 31bf 6037 41bf 3019 74be
000001c0: 47bc c6be f9ab 16bf 0de1 fcbe d935 d7be
000001d0: f5bd dabe 00a1 e2bc 4d50 f6be 4b5d 12bf
000001e0: fc86 37bf ba59 2ebf c93b dfbe 64e6 fdbe
000001f0: 15cb 02bf 1d0a 11bf f87c 87bd 4dea b3be
00000200: b53f bcbe c3ef 01bf 327f 3abf 574a 04bf
00000210: dac7 07bf b824 00bf ad4f a4be d201 0abf
00000220: 3e83 78be 4db3 60be a4d9 8dbe 847e e7be
00000230: 87ec ebbe 5b19 a3be fa73 06bf be98 eebe
00000240: 38fa 11bf ecf2 65bd cbef 51bf 94c6 0abf
00000250: d30e 2ebf 6d69 fdbe cd78 bebe 3813 18bf
00000260: 08b9 c0be e22a 0ebf 482d 04bf f9ec 89be
00000270: 69db 63bf 8d23 52bf f49f 17bf fd8b 00bf
00000280: 22f7 a0be 985e 06bf 0b11 a9be 91a0 13bf
00000290: 946f cebe 210a adbe 2274 acbe 2ff2 adbe
000002a0: 3b5a 52bf 0444 0fbf 41bc b3be b81c 14bf
000002b0: 141d 2bbf 9390 4a3d ff10 05bf 6dd8 39be
000002c0: df44 febe 1b8b 04bf 9715 29bf ab94 5ebe
000002d0: 0d84 e6be 4f70 3ebf 398f 02bf c9ef 18bf
000002e0: 4b3a 2dbe 980d babe 4dd1 4abe 02b6 80be
000002f0: 4210 0bbf e93b c6be 195b 7bbd 9194 09bf
00000300: bd6a b7be d250 733d 106b b8be 4d85 25bf
00000310: 4754 e4be 7dc0 36bf cdd0 26bf d6d9 36be
00000320: 5faf f3be b429 04bf 00f5 64bf 1424 02bf
00000330: 2442 0dbf 2364 02bf c83e fcbe e656 dabe
00000340: d6af 04bf 737b 13bd 7e15 2fbf 28b3 ebbe
00000350: 49a4 58bf 875b 3dbe 200c 20bf 449b c8be
00000360: 7337 91be e430 0dbf e8f6 06bf 7fff 14bf
00000370: ff9f dfbe b489 8fbe 30e9 06bf 21e5 67be
00000380: f7c9 97be ce5f 19bf 1089 f3be 4612 06bf
00000390: 4a6b 9bbc f65e a5be 326b 00bf 740c e1bd
000003a0: 4348 aabe 2ffb f4be fa1a 0ebf d6f2 09bf
000003b0: a687 38bf 4c64 7c3f 89bd 4bbe 0ea8 eabe
000003c0: bf74 40bf 962c 12bf 4c45 f4be 280b 41be
000003d0: e176 a3be 6c69 53bc 8f2a c9be ffd3 8ebc
000003e0: 01ee 0ebf 02d1 61be 484a b8bd 13b2 9fbe
000003f0: f4c9 4bbf f091 36bf f0f2 54bf 3cc1 4fbf

bn1.running_mean f4 [400]
0.45929027 -17.133856 22.795254 -12.41966 20.966316 -21.001493 -0.9010364 1.7207888
16.248768 -12.703751 -4.3420086 16.165533 -5.0552077 1.2469501 -0.49140993 -7.337155
-17.01554 -15.270895 13.833374 -8.772957 2.1974509 4.7326317 12.133522 3.3072882
-0.6880102 14.80624 13.430796 -8.832856 16.899696 -1.1726209 -6.7029567 -2.6745746
-17.67033 -1.812497 0.7247046 -7.2188826 -2.3348603 -0.055837613 23.544376 -11.432504
10.42715 14.095058 10.585535 -1.120562 -14.200506 11.315313 -0.675561 1.4858029
-14.348668 12.279361 2.3425794 -7.2718 -0.13308062 -8.11854 3.6084461 10.905825
-5.7109885 3.1506035 0.2840446 12.054198 6.0832715 18.080826 -7.1597085 9.784748
4.739191 12.983611 -4.976058 17.011562 6.3122087 0.9222362 0.3834069 -3.0192928
-0.38335875 18.061586 -3.7485268 15.393842 -10.446466 -4.725664 0.07357469 1.3451332
10.313902 -2.5996106 -14.885511 6.151197 -3.076937 7.2061615 6.0642924 -0.1976934
-5.7546015 19.321594 -3.2907443 2.1488483 -2.888617 6.724866 10.133291 4.4246316
-7.706756 -0.16301183 2.7185621 0.62960273 4.8063602 11.023037 14.685398 8.220379
-7.91873 16.976643 -7.882848 9.924752 12.649333 4.9202137 8.335066 -0.7455975
-6.466348 7.1463857 -18.180721 20.618284 -13.504808 -0.6213691 -3.275806 -11.196681
-6.838822 -13.515196 1.5833753 2.21828 -9.17957 14.241733 -6.973241 10.96046
0.48250955 -11.475716 5.1606297 10.082801 21.161137 14.794271 8.506539 -11.226277
24.75301 14.501101 13.206994 -11.568378 -9.018298 0.4833422 13.003911 4.6810513
9.680051 -0.81713164 13.856863 9.99082 22.174618 -10.6508 -18.828152 0.57797784
0.35641506 -3.3955362 10.310802 -6.5178885 -15.375858 2.9787116 -0.74589944 17.135515
6.020629 13.199612 10.488272 5.812479 0.46729502 5.986664 5.753421 -3.933114
12.252147 -0.18857087 -2.5949988 7.17688 -6.738598 2.6701562 15.5289345 -3.66199
24.868938 -12.989768 -5.3177505 8.271218 28.749884 11.857268 -23.33094 2.2464519
-5.1840124 3.3708508 12.845929 1.7457887 -9.040953 -13.696619 1.8325722 -15.349696
-5.883239 3.5868857 13.193142 -18.735508 3.98358 -8.749385 -21.636955 1.1191742
10.081274 -12.969018 3.6385868 4.2128515 8.680295 -7.5242124 11.476705 8.174286
6.556258 1.5425686 2.0196288 7.5867105 6.2326503 -5.0186944 2.5022511 -0.061037492
11.973238 -1.8958209 15.635132 9.153786 6.2607217 -7.175645 2.3078086 -3.4940853
2.922509 12.801747 6.466857 -6.76537 -0.14273308 -13.009485 14.002569 1.9148644
-17.547571 -4.503131 -10.314226 -22.030956 -2.647601 0.9816739 4.3605685 15.709476
-1.6500078 -18.82492 -13.920162 3.8264685 6.0731378 -0.39411432 14.626287 -0.96864474
-2.1749291 -1.1570301 2.4264843 -0.47232082 15.623775 -1.0155585 -4.841722 -5.6573296
00000000: 1828 eb3e 2312 89c1 ae5c b641 edb6 46c1
00000010: 04bb a741 0f03 a8c1 52aa 66bf cf42 dc3f
00000020: 7afd 8141 9042 4bc1 bcf1 8ac0 0353 8141
00000030: 43c4 a1c0 109c 9f3f 159a fbbe f9c9 eac0
00000040: d31f 88c1 9655 74c1 8055 5d41 085e 0cc1
00000050: 09a3 0c40 b871 9740 e822 4241 9caa 5340
00000060: 7021 30bf 5ce6 6c41 8ae4 5641 6153 0dc1
00000070: 9432 8741 7118 96bf 9f7e d6c0 3b2c 2bc0
00000080: d65c 8dc1 e7ff e7bf 3e86 393f 1601 e7c0
00000090: 5a6e 15c0 fbb5 64bd e25a bc41 89eb 36c1
000000a0: 9bd5 2641 5c85 6141 5a5e 2941 936e 8fbf
000000b0: 4635 63c1 860b 3541 91f1 2cbf ca2e be3f
000000c0: 2594 65c1 4378 4441 d2ec 1540 96b2 e8c0
000000d0: 4946 08be 8ae5 01c1 c8f0 6640 427e 2e41
000000e0: 6bc0 b6c0 7da3 4940 4b6e 913e ffdd 4041
000000f0: 29aa c240 88a5 9041 551c e5c0 548e 1c41
00000100: 74a7 9740 dfbc 4f41 de3b 9fc0 ae17 8841
00000110: 9dfd c940 ac17 6c3f e94d c43e 183c 41c0
00000120: 9947 c4be 217e 9041 dde7 6fc0 2d4d 7641
00000130: ba24 27c1 a438 97c0 54ae 963d 532d ac3f
00000140: be05 2541 0560 26c0 0e2b 6ec1 9bd6 c440
00000150: 89ec 44c0 e098 e640 af0e c240 2370 4abe
00000160: b225 b8c0 a092 9a41 8e9b 52c0 bb86 0940
00000170: 1adf 38c0 1a32 d740 f621 2241 9596 8d40
00000180: bf9d f6c0 93ec 26be ecfc 2d40 a52d 213f
00000190: b4cd 9940 5c5e 3041 64f7 6a41 ac86 0341
000001a0: 3c66 fdc0 2ad0 8741 4a40 fcc0 c9cb 1e41
000001b0: ab63 4a41 6472 9d40 6e5c 0541 7adf 3ebf
000001c0: 53ec cec0 31af e440 1e72 91c1 3ff2 a441
000001d0: b213 58c1 0c12 1fbf cea6 51c0 9b25 33c1
000001e0: a1d7 dac0 3e3e 58c1 0bac ca3f 4df8 0d40
000001f0: 85df 12c1 23de 6341 ca24 dfc0 0b5e 2f41
00000200: 7e0b f73e 889c 37c1 e123 a540 2753 2141
00000210: 024a a941 56b5 6c41 c91a 0841 d59e 33c1
00000220: 2a06 c641 8204 6841 d94f 5341 1418 39c1
00000230: f34a 10c1 a178 f73e 0510 5041 2ccb 9540
00000240: 7de1 1a41 8a2f 51bf b6b5 5d41 66da 1f41
00000250: 9e65 b141 ad69 2ac1 0ea0 96c1 5bf6 133f
00000260: 097c b63e 7750 59c0 0cf9 2441 8b92 d0c0
00000270: 8403 76c1 36a3 3e40 44f3 3ebf 8915 8941
00000280: fea8 c040 9c31 5341 f6cf 2741 d4ff b940
00000290: 4b41 ef3e c092 bf40 061c b840 24b8 7bc0
000002a0: cb08 4441 b918 41be 7614 26c0 00a9 e540
000002b0: 98a2 d7c0 d7e3 2a40 8476 7841 0b5e 6ac0
000002c0: 96f3 c641 17d6 4fc1 032b aac0 e956 0441
000002d0: c3ff e541 5fb7 3d41 c4a5 bac1 dec5 0f40
000002e0: 6ee3 a5c0 05bc 5740 ed88 4d41 0176 df3f
000002f0: bea7 10c1 5a25 5bc1 ba91 ea3f 5b98 75c1
00000300: 7e43 bcc0 898f 6540 1c17 5341 52e2 95c1
00000310: faf2 7e40 7bfd 0bc1 7c18 adc1 1a41 8f3f
00000320: e64c 2141 1981 4fc1 9bde 6840 aecf 8640
00000330: 7de2 0a41 59c6 f0c0 95a0 3741 e0c9 0241
00000340: decc d140 e372 c53f 9941 0140 55c6 f240
00000350: df71 c740 2599 a0c0 e224 2040 7302 7abd
00000360: 6292 3f41 42aa f2bf 8029 7a41 e875 1241
00000370: d557 c840 e29e e5c0 23b3 1340 189f 5fc0
00000380: 630a 3b40 f5d3 4c41 7ef0 ce40 e97d d8c0
00000390: 9f28 12be da26 50c1 860a 6041 471a f53f
000003a0: 6d61 8cc1 a619 90c0 1207 25c1 663f b0c1
000003b0: 4b72 29c0 fb4e 7b3f c789 8b40 045a 7b41
000003c0: 7533 d3bf 7099 96c1 fcb8 5ec1 dce4 7440
000003d0: 2557 c240 5ac9 c9be 4605 6a41 1af9 77bf
000003e0: 0a32 0bc0 9019 94bf 854b 1b40 09d4 f1be
000003f0: fbfa 7941 d2fd 81bf 63ef 9ac0 d808 b5c0

bn1.running_var f4 [400]
371.30994 293.41196 173.79585 89.341644 348.46454 154.41959 1.5219221 553.5046
121.02362 168.26494 356.8187 249.37837 148.96402 220.28201 117.1547 198.5056
101.91836 130.059 75.196945 136.39864 174.25743 293.68436 121.60747 235.4841
1.6889449 68.09926 89.797615 118.2926 81.81076 120.881805 213.9274 103.65312
113.60275 125.906845 175.16713 115.79888 35.541935 72.4672 162.53494 161.8539
210.84323 43.370777 225.30472 686.86005 47.12827 183.24437 150.89728 8.914451
777.9783 163.8546 56.841206 140.56842 58.425217 136.3749 21.727608 325.73883
179.85558 250.28009 58.48534 197.44133 114.244354 250.1392 132.3983 286.94315
198.09538 169.83539 99.511894 100.888794 277.78375 15.247728 254.7144 270.87744
1.443958 175.30695 62.96612 217.16501 175.85889 173.64671 80.10627 15.150953
193.63786 186.91385 110.506905 136.54317 24.576508 130.18796 123.19 339.01224
370.46542 396.34866 233.4282 137.2843 136.80225 118.94612 182.77858 63.893787
67.823944 491.81342 361.13336 183.40039 314.6894 155.43217 345.3652 152.97665
102.015884 85.03465 69.26549 240.40552 431.24258 123.90662 134.67938 76.676056
374.6367 252.76088 101.48841 107.08322 64.82816 3.8262951 158.22748 108.50397
83.38518 118.8532 82.30988 130.73729 86.71631 108.2652 29.225176 52.5231
22.564837 106.54378 457.23154 140.39133 239.88385 131.4637 422.00592 206.31223
452.2183 266.87326 195.48932 273.1871 215.3914 141.28223 226.90637 200.52818
100.96977 5.861286 112.37897 96.43507 160.41768 182.56357 135.22595 169.01834
135.26381 361.5111 224.5107 278.23868 221.09253 920.5548 238.35707 232.93437
94.36426 180.6761 209.65002 43.645836 101.65135 124.070465 192.08813 191.15163
382.1493 108.30937 145.40471 345.66425 95.397995 643.40875 410.2722 27.527683
210.44673 142.0511 116.5903 74.87173 185.75945 99.361694 198.17525 222.69357
47.060135 90.09168 136.46677 350.18265 149.08813 148.85649 131.17334 230.40828
271.4859 64.03713 104.19893 97.65044 308.48465 131.21614 110.684746 40.693237
312.3227 192.0441 249.76439 56.709835 117.47638 223.84698 317.70898 241.15588
48.03853 14.519607 140.42871 316.15707 110.40414 22.538996 186.44553 412.9412
171.73843 167.7035 122.46753 339.53946 99.85664 68.85427 295.4698 58.2796
266.01752 111.33588 158.60126 111.947105 3.6056952 242.10403 66.647865 320.29343
115.43129 168.15065 91.2289 133.31618 204.24013 8.64315 67.00769 132.00174
250.31462 109.08257 122.89449 230.62108 248.3685 1.3649524 174.36519 4.155841
314.47784 12.7084055 771.91986 111.84628 193.67561 397.83978 345.98572 85.87373
00000000: aca7 b943 bbb4 9243 bdcb 2d43 ecae b242
00000010: 763b ae43 6a6b 1a43 58ce c23f 4b60 0a44
00000020: 180c f242 d343 2843 cb68 b243 dd60 7943
00000030: caf6 1443 3248 5c43 354f ea42 6f81 4643
00000040: 33d6 cb42 1b0f 0243 d664 9642 0d66 0843
00000050: e741 2e43 99d7 9243 0637 f342 ee7b 6b43
00000060: 592f d83f d232 8842 6198 b342 d095 ec42
00000070: 1c9f a342 7cc3 f142 6aed 5543 664e cf42
00000080: 9c34 e342 4ed0 fb42 c92a 2f43 0799 e742
00000090: f12a 0e42 35ef 9042 f288 2243 99da 2143
000000a0: ded7 5243 ad7b 2d42 024e 6143 0bb7 2b44
000000b0: 5983 3c42 8f3e 3743 b4e5 1643 97a1 0e41
000000c0: 9c7e 4244 c7da 2343 655d 6342 8491 0c43
000000d0: 6cb3 6942 f95f 0843 24d2 ad41 92de a243
000000e0: 07db 3343 b447 7a43 fdf0 6942 fb70 4543
000000f0: 1c7d e442 a323 7a43 f765 0443 b978 8f43
00000100: 6b18 4643 dcd5 2943 1706 c742 10c7 c942
00000110: 52e4 8a43 b2f6 7341 e3b6 7e43 5070 8743
00000120: 9ed3 b83f 944e 2f43 4fdd 7b42 3e2a 5943
00000130: e0db 2f43 8fa5 2d43 6936 a042 4e6a 7241
00000140: 4ba3 4143 f2e9 3a43 8903 dd42 0d8b 0843
00000150: b09c c441 1e30 0243 4861 f642 9181 a943
00000160: 933b b943 a12c c643 9f6d 6943 c848 0943
00000170: 60cd 0843 6ae4 ed42 51c7 3643 3d93 7f42
00000180: dca5 8742 1ee8 f543 1291 b443 8066 3743
00000190: 3e58 9d43 a36e 1b43 bfae ac43 06fa 1843
000001a0: 2208 cc42 be11 aa42 ee87 8a42 d067 7043
000001b0: 0d9f d743 30d0 f742 ecad 0643 245a 9942
000001c0: 7f51 bb43 c9c2 7c43 11fa ca42 9c2a d642
000001d0: 05a8 8142 05e2 7440 3c3a 1e43 0802 d942
000001e0: 36c5 a642 d7b4 ed42 a99e a442 bfbc 0243
000001f0: c06e ad42 c887 d842 29cd e941 a817 5242
00000200: c984 b441 6a16 d542 a39d e443 2e64 0c43
00000210: 44e2 6f43 b576 0343 c200 d343 ee4f 4e43
00000220: f11b e243 c76f 8543 447d 4343 f397 8843
00000230: 3364 5743 4048 0d43 08e8 6243 3787 4843
00000240: 86f0 c942 a88f bb40 08c2 e042 c1de c042
00000250: ed6a 2043 4690 3643 d839 0743 b204 2943
00000260: 8943 0743 6cc1 b443 bd82 6043 8d1e 8b43
00000270: b017 5d43 8223 6644 695b 6e43 33ef 6843
00000280: 80ba bc42 15ad 3443 68a6 5143 5695 2e42
00000290: 7e4d cb42 1424 f842 9016 4043 d126 3f43
000002a0: 1c13 bf43 669e d842 9b67 1143 06d5 ac43
000002b0: c6cb be42 29da 2044 d722 cd43 b238 dc41
000002c0: 5d72 5243 150d 0e43 3c2e e942 53be 9542
000002d0: 6bc2 3943 30b9 c642 dd2c 4643 8eb1 5e43
000002e0: 943d 3c42 f12e b442 7e77 0843 6117 af43
000002f0: 9016 1543 43db 1443 602c 0343 8568 6643
00000300: 32be 8743 0313 8042 da65 d042 064d c342
00000310: 093e 9a43 5537 0343 975e dd42 e0c5 2242
00000320: 4e29 9c43 4a0b 4043 afc3 7943 dfd6 6242
00000330: e8f3 ea42 d4d8 5f43 c0da 9e43 e827 7143
00000340: 7427 4042 4f50 6841 c06d 0c43 1b14 9e43
00000350: ebce dc42 dd4f b441 0e72 3a43 7978 ce43
00000360: 0abd 2b43 19b4 2743 60ef f442 0dc5 a943
00000370: 9ab6 c742 63b5 8942 22bc 9343 4f1e 6942
00000380: 3e02 8543 f8ab de42 ec99 1e43 ebe4 df42
00000390: b6c3 6640 a21a 7243 b54b 8542 8f25 a043
000003a0: d2dc e642 9126 2843 3275 b642 f150 0543
000003b0: 793d 4c43 584a 0a41 f003 8642 7200 0443
000003c0: 8b50 7a43 472a da42 fbc9 f542 ff9e 6643
000003d0: 565e 7843 c3b6 ae3f 7d5d 2e43 a6fc 8440
000003e0: 2a3d 9d43 a155 4b41 dffa 4044 4cb1 df42
000003f0: f5ac 4143 7eeb c643 2cfe ac43 5abf ab42

fc2.weight f4 [300, 400]
-0.49381208 -1.0217003 -0.2354805 -0.0140990345 -0.18579079 0.53864354 0.011215625 -0.3644954
-0.036450014 0.32081607 0.070219554 0.79398775 -0.33874568 -0.08376443 0.04764101 -0.5432368
0.13383572 0.52695507 -0.40198845 0.6572883 -0.013591036 0.12479435 0.014178894 0.19340596
0.021679087 0.18948404 0.36471266 -0.06722143 0.27996224 0.21071695 -0.60607296 -0.28451934
0.2396167 -0.112996645 0.19715591 -0.34189683 -0.06600412 0.43682384 -0.050601613 -0.33280507
0.7183526 -0.12484752 -0.63706195 -0.38772276 -0.09879738 -0.28981823 -0.107883275 -0.16141239
-0.013734357 -0.73651594 -0.08381455 -0.062391512 0.021208094 0.11401538 -0.19825551 -0.16538648
-0.37364495 -0.45575857 0.03761715 -0.058099948 -0.52452475 -0.1657559 -0.16485941 -0.41511756
-0.36656743 0.5283032 -0.10038399 0.15811948 0.05993746 0.047897235 -0.24861324 -0.017303986
-0.053243257 -0.46143964 0.005716181 0.4831021 0.19191611 -0.16074441 0.10596698 0.037468947
-0.14670691 -0.51434445 0.29464293 -0.00839546 0.019577822 -0.77100956 -0.8803704 -0.22512738
-0.61186516 0.2091364 -0.7201709 -0.5326759 -0.36854044 0.13144441 -1.0752401 -0.4669852
-0.26230168 -0.41857567 -0.3568488 0.53083354 -0.43784332 -0.17399196 0.041297983 -0.31293955
-0.049915597 0.51601297 0.22319648 0.04065818 0.43585697 0.17340109 -0.2626353 0.10969635
0.4542009 -0.58720267 -0.47366503 -0.3299952 0.22712031 -0.012036183 0.39746186 0.28108802
0.012651506 -0.718949 0.32301942 0.21685015 -0.21151549 0.7847741 0.0024695164 -0.06375788
0.01696367 -0.38856453 -0.6153577 0.036513887 -0.71871907 -0.29620132 -0.19624902 -0.14325048
0.119744934 -0.01924992 0.18888155 -0.05762061 -0.08892785 -0.17590734 0.09652183 -0.13291849
0.1661655 0.002583772 1.0458667 0.20248426 -0.2862012 -0.6251478 -0.22202615 -0.055089816
-0.25656608 -0.49275395 0.39928678 -0.118833564 0.09310704 0.14935185 -0.016268067 0.7661849
-0.10811987 0.22012563 -0.88772106 -0.27698246 0.38200808 0.49803925 0.16212355 0.016537828
0.06041426 0.250249 -0.38600758 -0.11690428 0.12982209 0.04074399 0.29493198 0.040748313
0.11655051 -0.6568757 -0.030892711 -0.00709513 0.2970098 -0.49896827 -0.65167135 -0.8418302
0.4170537 -0.16790403 -0.122366115 0.016946398 -0.15283063 -0.5096765 0.045214668 -0.522666
-0.1838357 -0.5163116 0.45141116 -0.13474879 -0.5475201 -0.17557392 -0.11136784 0.19438486
0.106806025 0.67788714 -0.23501867 -0.36004454 0.36619428 -0.75217223 -0.42261848 -0.8135119
0.40982527 -0.017757464 -0.0057915417 0.34641626 -0.00855162 -0.039090604 0.013708309 -0.06449012
-0.26666296 -0.3282767 -0.6078439 0.40177816 -0.2445077 -0.06721712 0.40349972 0.22855073
0.021621443 -0.43762434 -0.63802063 -0.77509445 0.04855783 -0.12975162 0.80261785 0.08183185
-0.9716714 -0.14681458 0.4829242 0.30401972 -0.11190112 0.30404487 -0.34085277 0.23705724
-0.03861171 -0.24355817 0.09148918 0.14511018 0.14019944 -0.021832157 0.10623272 0.00873619
-0.483285 -0.049816553 0.11493877 -0.30920205 0.05829731 -0.6068018 -0.15629877 -0.40356
00000000: f0d4 fcbe 13c7 82bf cd21 71be a3ff 66bc
00000010: f13f 3ebe 8be4 093f bec1 373c 249f babe
00000020: 9c4c 15bd 0142 a43e 45cf 8f3d c842 4b3f
00000030: 1370 adbe af8c abbd 3823 433d 9111 0bbf
00000040: 3b0c 093e 87e6 063f 6ed1 cdbe 0c44 283f
00000050: f0ac 5ebc 2e94 ff3d 984e 683c 360c 463e
00000060: 5798 b13c 1b08 423e 9ebb ba3e 64ab 89bd
00000070: 3657 8f3e 2fc6 573e 9927 1bbf 85ac 91be
00000080: 155e 753e c96a e7bd 3de3 493e 1a0d afbe
00000090: 2b2d 87bd 60a7 df3e a343 4fbd 6d65 aabe
000000a0: f5e5 373f 0eb0 ffbd 7e16 23bf 9983 c6be
000000b0: 4856 cabd 0e63 94be e8f1 dcbd 4a49 25be
000000c0: 1206 61bc 4f8c 3cbf f6a6 abbd 3e8e 7fbd
000000d0: 99bc ad3c e580 e93d 7e03 4bbe 135b 29be
000000e0: 644e bfbe 3059 e9be 7114 1a3d 36fa 6dbd
000000f0: 4147 06bf eabb 29be e8d0 28be 4a8a d4be
00000100: baae bbbe e13e 073f 1f96 cdbd 13ea 213e
00000110: fb80 753d e42f 443d 7894 7ebe 17c1 8dbc
00000120: 9a15 5abd d141 ecbe cd4e bb3b 2959 f73e
00000130: a885 443e 2f9a 24be 3705 d93d 0a79 193d
00000140: 563a 16be 14ac 03bf 70db 963e 1d8d 09bc
00000150: ab61 a03c e260 45bf f45f 61bf cb87 66be
00000160: 32a3 1cbf da27 563e 1f5d 38bf 735d 08bf
00000170: 55b1 bcbe 5d99 063e 78a1 89bf af18 efbe
00000180: 684c 86be 8d4f d6be e3b4 b6be b5e4 073f
00000190: 002d e0be f32a 32be 1328 293d 9d39 a0be
000001a0: 4c74 4cbd 6d19 043f 9e8d 643e 3189 263d
000001b0: a528 df3e 0e90 313e 2278 86be 7ba8 e03d
000001c0: 058d e83e ea52 16bf 3984 f2be 21f5 a8be
000001d0: 3a92 683e 6933 45bc 1f80 cb3e c5ea 8f3e
000001e0: 4348 4f3c 0b0d 38bf cd62 a53e f70d 5e3e
000001f0: 8497 58be f5e6 483f 9cd7 213b 7e93 82bd
00000200: 65f7 8a3c eef1 c6be 1588 1dbf 968f 153d
00000210: f9fd 37bf b3a7 97be 81f5 48be 41b0 12be
00000220: d53c f53d 02b2 9dbc 2a6a 413e 9703 6cbd
00000230: ce1f b6bd 0e21 34be 3dad c53d c91b 08be
00000240: 4a27 2a3e 8054 293b f6de 853f 0958 4f3e
00000250: f788 92be b009 20bf d35a 63be dca5 61bd
00000260: a15c 83be 3f4a fcbe 516f cc3e 035f f3bd
00000270: e7ae be3d b1ef 183e 9c44 85bc b224 443f
00000280: f36d ddbd 9d68 613e b041 63bf a5d0 8dbe
00000290: 9096 c33e 00ff fe3e b703 263e 577a 873c
000002a0: f174 773d a320 803e c9a2 c5be 836b efbd
000002b0: 15f0 043e 2ce3 263d 5301 973e b4e7 263d
000002c0: 09b2 ee3d 0229 28bf b612 fdbc 447e e8bb
000002d0: ab11 983e c578 ffbe efd3 26bf 2f82 57bf
000002e0: 1088 d53e 09ef 2bbe 169b fabd 2cd3 8a3c
000002f0: a27f 1cbe 297a 02bf 0433 393d 70cd 05bf
00000300: 6d3f 3cbe ff2c 04bf 5d1f e73e 96fb 09be
00000310: 472a 0cbf a6c9 33be d214 e4bd d30c 473e
00000320: 1ebd da3d 038a 2d3f bca8 70be c257 b8be
00000330: d17d bb3e 5c8e 40bf 7361 d8be 5142 50bf
00000340: 9ed4 d13e 1a78 91bc f9c6 bdbb 795d b13e
00000350: 181c 0cbc 781d 20bd d198 603c 6513 84bd
00000360: 0c88 88be e213 a8be a89b 1bbf deb5 cd3e
00000370: 3a60 7abe 21a9 89bd 8497 ce3e 3409 6a3e
00000380: 741f b13c 4c10 e0be 5255 23bf 976c 46bf
00000390: 93e4 463d 9cdd 04be 5d78 4d3f 7597 a73d
000003a0: 75bf 78bf 9056 16be d741 f73e 79a8 9b3e
000003b0: 6a2c e5bd c5ab 9b3e 4184 aebe 22bf 723e
000003c0: 5027 1ebd 5067 79be ae5e bb3d c397 143e
000003d0: 7190 0f3e 5ad9 b2bc 8a90 d93d 3d22 0f3c
000003e0: 2271 f7be 710c 4cbd 0565 eb3d bb4f 9ebe
000003f0: 29c9 6e3d 5d57 1bbf c90c 20be 6b9f cebe

fc2.bias f4 [300]
-0.024372764 0.03666723 -0.021646645 -0.040440857 0.042310458 -0.046680577 -0.037881255 0.038762435
-0.017963024 -0.02232856 -0.0098449495 0.019863462 0.04301757 0.0042028883 0.025942054 -0.007338559
0.045519426 0.03389923 0.022106778 -0.03590048 0.0388085 -0.047639 -0.016648313 0.006968592
0.030742493 -0.043947913 0.039853938 0.048544522 0.045299698 0.025045983 -0.015117405 0.007835568
-0.025101913 0.042620156 0.02282625 0.019864693 0.027006177 -0.035467178 0.0048842467 -0.009093809
-0.037757073 -0.017894635 -0.042578366 0.0190484 -0.008252579 0.012696816 -0.042804163 0.0368454
-0.019129882 0.023700666 0.021366442 0.0099104345 0.04881095 -0.0064496617 0.0207232 -0.016438412
-0.036619864 0.0106897745 -0.04122785 -0.023863334 -0.048608907 -0.013243717 -0.04706439 -0.032464918
0.011107817 0.04694844 -0.028591024 -0.033438507 -0.040468354 -0.030096382 -0.017023586 -0.02178884
0.012866483 0.037614804 0.03392844 0.049349178 -0.04152901 0.03503528 -0.019551579 -0.030826705
-0.048572194 0.03316573 0.04584544 0.01702672 0.025169728 0.032378692 0.033820584 0.048390787
0.043963645 0.031969003 -0.011651573 0.026174523 0.017143328 0.039551653 -0.03955098 -0.04030483
0.024120243 -0.009283906 -0.025411597 0.008926633 -0.024677841 -0.004976541 -0.021029856 0.014557685
-0.0043058977 -0.015580188 0.008510805 0.007423355 0.010858017 0.046763975 0.014657736 -0.01946801
0.03249096 -0.0028598004 0.027770624 0.022653064 -0.042162966 -0.017300406 0.01324454 0.023973756
-0.029258456 -0.019770712 -0.026730523 -0.03956695 -0.00789067 -0.02397496 0.014191606 -0.009179847
-0.04678072 0.0027842291 0.029233987 0.046769023 -0.039429054 -0.04402024 -0.031622376 0.0038959451
0.0012333358 -0.043326057 0.0010473137 0.008330439 -0.0445563 0.044243816 -0.015302758 -0.041281763
0.01830607 -0.035694152 0.034598596 -0.029341532 -0.046398267 0.03784977 -0.009840688 0.019103738
-0.04052884 0.003913522 -0.027850782 -0.027196554 -0.013829863 0.038235724 0.026543016 -0.038437102
-0.02091151 0.01822879 -0.035936598 -0.01578518 0.03524263 0.044637784 -0.019789116 -0.008725493
0.021924783 0.00079973054 0.039729677 0.0041715326 0.0037188926 0.0005227033 0.029982558 -0.004455099
0.03060495 -0.010827612 0.038489733 0.02960835 -0.036652092 0.045835935 -0.0035356088 -0.006017636
0.0011331021 -0.025600046 -0.041324046 -0.05022877 0.04044548 -0.018581724 0.017889488 -0.0062366286
-0.04552581 0.017122649 0.00090560736 -0.001774967 0.030073248 -0.01243396 -0.022706386 -0.011203164
-0.029190825 -0.024986079 -0.019350275 0.036978718 0.034852937 -0.017893324 -0.017016504 0.03313423
-0.028309183 -0.044207722 0.030640574 0.0110415155 -0.029407708 0.02497747 -0.037894342 0.0073456033
-0.02981333 0.025814183 0.02934577 -0.014833269 -0.0012890144 0.010499215 0.03282611 0.015168765
0.015556704 0.028764857 0.04077839 0.009151859 0.012902463 -0.041951474 0.017871575 -0.003926145
0.031073902 -0.04445744 -0.033305813 -0.016748644 0.024883946 0.03138938 0.0128036635 -0.003578131
-0.03317111 -0.021775648 0.037483785 -0.018569889 -0.043643072 0.035614725 -0.043791395 0.022439968
-0.027145283 0.003232661 -0.025515249 -0.0023029146 0.031329736 0.016876021 0.0102861 -0.014351053
00000000: 64a9 c7bc 6130 163d 4e54 b1bc 50a5 25bd
00000010: bb4d 2d3d 2234 3fbd 6029 1bbd 5cc5 1e3d
00000020: 3127 93bc 62ea b6bc b64c 21bc b3b8 a23c
00000030: 3133 303d 62b8 893b 6e84 d43c 4b78 f0bb
00000040: 9472 3a3d ebd9 0a3d 4619 b53c 620c 13bd
00000050: a9f5 1e3d 1d21 43bd 0b62 88bc c958 e43b
00000060: aed7 fb3c ba02 34bd e23d 233d 9fd6 463d
00000070: 2d8c 393d 3c2d cd3c feae 77bc c160 003c
00000080: 87a2 cdbc 7992 2e3d 1efe ba3c 48bb a23c
00000090: 0f3c dd3c 0846 11bd 080c a03b 33fe 14bc
000000a0: 29a7 1abd c597 92bc a766 2ebd 640b 9c3c
000000b0: d335 07bc 4e06 503c 6b53 2fbd 34eb 163d
000000c0: 45b6 9cbc e627 c23c ad08 af3c 605f 223c
000000d0: feed 473d af57 d3bb b3c3 a93c d9a9 86bc
000000e0: b6fe 15bd 2a24 2f3c 89de 28bd 0a7d c3bc
000000f0: 221a 47bd 2dfc 58bc 97c6 40bd eff9 04bd
00000100: 90fd 353c 024d 403d b937 eabc d1f6 08bd
00000110: 25c2 25bd b08c f6bc 0c75 8bbc 827e b2bc
00000120: f1cd 523c fb11 1a3d 8cf8 0a3d 5d22 4a3d
00000130: 531a 2abd 2781 0f3d a22a a0bc 4988 fcbc
00000140: a3f3 46bd cad8 073d 6ec8 3b3d 9f7b 8b3c
00000150: bf30 ce3c 859f 043d 7487 0a3d 6b35 463d
00000160: 3913 343d eef1 023d 3de6 3ebc f46b d63c
00000170: 2a70 8c3c ea00 223d 3500 22bd ad16 25bd
00000180: d197 c53c 861b 18bc fb2b d0bc 0341 123c
00000190: 2f29 cabc 4012 a3bb ce46 acbc 5b83 6e3c
000001a0: 7d18 8dbb 0b44 7fbc e770 0b3c 9d3f f33b
000001b0: d3e5 313c 958b 3f3d 0027 703c 607b 9fbc
000001c0: 3e15 053d 7d6b 3bbb 387f e33c eb92 b93c
000001d0: 13b3 2cbd 95b9 8dbc a1ff 583c 9c64 c43c
000001e0: 6eaf efbc 30f6 a1bc f8f9 dabc f410 22bd
000001f0: de47 01bc 2367 c4bc e983 683c 1267 16bc
00000200: 249d 3fbd 9d77 363b 1d7c ef3c e090 3f3d
00000210: 5c80 21bd 914e 34bd 7786 01bd 1d53 7f3b
00000220: e2a7 a13a aa76 31bd 0446 893a 657c 083c
00000230: ab80 36bd 0139 353d 6bb8 7abc 1117 29bd
00000240: 9cf6 953c 0834 12bd 42b7 0d3d a75d f0bc
00000250: 1c0c 3ebd 5c08 1b3d d63a 21bc 717f 9c3c
00000260: 9201 26bd 013d 803b 5327 e4bc 4fcb debc
00000270: a696 62bc 109d 1c3d bd70 d93c 3970 1dbd
00000280: 9d4e abbc 8b54 953c 4132 13bd ec4f 81bc
00000290: 935a 103d 1cd6 363d c91c a2bc 5ff5 0ebc
000002a0: 9a9b b33c 02a5 513a 96bb 223d 5ab1 883b
000002b0: aab8 733b 0606 093a fb9d f53c 14fc 91bb
000002c0: 3bb7 fa3c 4c66 31bc 69a7 1d3d 368d f23c
000002d0: 8120 16bd 76be 3b3d acb5 67bb 972f c5bb
000002e0: 9984 943a 30b7 d1bc 6743 29bd afbc 4dbd
000002f0: 29aa 253d b338 98bc fa8c 923c a25c ccbb
00000300: 4679 3abd cc44 8c3c 4866 6d3a 02a6 e8ba
00000310: 2c5c f63c cfb7 4bbc be02 babc 7a8d 37bc
00000320: 9921 efbc 9baf ccbc 7884 9ebc ff76 173d
00000330: f4c1 0e3d 0595 92bc 3266 8bbc c2b7 073d
00000340: a9e8 e7bc 2813 35bd f101 fb3c 79e7 343c
00000350: 6fe8 f0bc 8d9d cc3c 1937 1bbd 63b3 f03b
00000360: 163b f4bc 4478 d33c 8a66 f03c 3d07 73bc
00000370: 25f4 a8ba e604 2c3c ac74 063d 6986 783c
00000380: 8ce1 7e3c 47a4 eb3c 3e07 273d aef1 153c
00000390: da64 533c 4fd5 2bbd 6967 923c e4a6 80bb
000003a0: b28e fe3c 0119 36bd ad6b 08bd 7434 89bc
000003b0: 6bd9 cb3c 2792 003d 75c6 513c 147f 6abb
000003c0: 6ede 07bd d862 b2bc 9988 193d e11f 98bc
000003d0: 14c3 32bd bfe0 113d 9b5e 33bd 06d4 b73c
000003e0: c95f debc 0ddb 533b 5b05 d1bc 7fec 16bb
000003f0: 9c53 003d 953f 8a3c 0887 283c ae20 6bbc
